2nd Task/lightning_logs/version_0/checkpoints/epoch=4-step=7500.ckpt (torch, 961330 bytes, 12 tensors)

fc1.weight f4 [100, 784]
00000000: 8afd 9e3c 1c60 113c 7efc b9bc 13e3 0b3d
00000010: 1c56 96bb e309 103d 2acf cc3c 7099 0dbb
00000020: fa2f bb3c 60b0 40bc a03f 543c 4846 dfbb
00000030: f6c7 10bd 4e5e dabc f6a2 e93c e0a8 1b3c
00000040: e49a 383c a835 d9bc 080e e5bc eef1 c8bc
00000050: aca2 b63c 5961 023d 24df d5bb 209f c13a
00000060: 734e f6bc aa98 09bc 1756 0a3d 60fc ae3c
00000070: 4c1c 8f3c 4a00 30bc a027 663b 123f 27bc
00000080: aed3 903c 030e 123d 6c70 b13c 3cda 4f3c
00000090: aee0 f03c 908c 5cbb b03b d63c 88b4 af3c
000000a0: 9873 a73c 5295 f53c b0c2 a2bc bbb8 19bc
000000b0: daa6 b6bc 4092 963b 654a 8ebc e8d7 b83c
000000c0: 960e ad3c deda bebc d05b 1c3c 85da ebbc
000000d0: e02e 053b fabe aa3c 7840 d7bb 3867 7abc
000000e0: 98df 0bbd a4d9 0f3c 3395 e3bc 78c4 bcbb
000000f0: 80a0 47bb 6eb6 fd3c ac74 90bc dc69 a3bb
00000100: 7e57 e63c 7c29 c83c 209d b63c e67c f23c
00000110: f0b2 553b 99d2 c7bb b2fd a1bc 38e0 903c
00000120: 84b5 a83c 571a 92bc f02c 9b3b d412 813c
00000130: c0c2 f8bb be61 ddbc 54d7 7cbc 7e04 923c
00000140: 86ef 3ebc 45ad c9bc b0cc 27bb 5613 04bd
00000150: f0b3 da3b 2033 f23a b076 b4bb 2627 37bc
00000160: 7007 be3c 27ac 0e3d 6a79 d6bc 418b e9bc
00000170: 60d9 1c3c 9250 9d3c a0ae cebc 7855 ef3b
00000180: 9a2d 963c 9d73 bf3b 04dc ef3b 16ae 17bd
00000190: 84f1 19bd df60 c73b b07f ac3c bc70 c03c
000001a0: 50c9 053b 47ca 053d 23d7 babc 7071 e6bb
000001b0: 1433 783c dc61 18bc 7231 883c d103 fbbc
000001c0: 9c1d 1dbc d96c 113d a897 963c 6ed8 8cbc
000001d0: c022 b13a 6aef 993c 18f7 c63c 0e22 c03c
000001e0: 90e9 4f3b aef4 2fbc 0011 2439 702c 763b
000001f0: 1838 01bd 8051 fabc bd7b 00bd d0b3 bbbc
00000200: 4720 28bd 5cd4 873c a7a0 ebbb f541 c03c
00000210: e705 133c abf8 b4bc a8b0 47bc 1b0d 11bd
00000220: 807d 0d3c b0de 9dbc 7cb0 703c 7a67 fcbc
00000230: 0a91 df3c e4a5 01bd 6e7a 42bc aa92 9b3c
00000240: 2ae8 b1bc c8df dcbc bcec 913c b339 a13c
00000250: fed9 823c b058 22bd dca4 14bc dfac 2abc
00000260: a730 3ebc a01b bfbb 991a 923c c165 2dbd
00000270: a8df 0c3b 00a7 7dbc c45f 40b9 b61a 20bd
00000280: bd5e 13bc 70b8 bebc 3820 42bb de84 e73c
00000290: 7064 d9bc 5ae1 b63c e84b cd3b 425d de3c
000002a0: 4841 773c aa54 a03c b445 75bc e6d9 a63c
000002b0: 3ec7 a93c c690 6ebc 124b 49bc 351a 01bd
000002c0: 2a0f c3bc b5f5 c8bc 9a3d c13b b347 ebbb
000002d0: bcb1 893c fb7d 6d3c 9213 c73c bc39 06bd
000002e0: dfab 293c f0d1 083c 5221 68bc 8c49 f1bb
000002f0: 4469 e5bc c879 443c 8249 9bbb 7a6a a4bc
00000300: 020a e53c b0ae dbbb a33b 113d 60ba 6bbc
00000310: 96da d73c 9c9e f7bc cefa fc3c 7af8 913c
00000320: 60bd 303b f099 453b 774a 053d 7a46 d4bc
00000330: 45ed 10bd 9c37 aabc d406 9139 18bd cdbb
00000340: 758a 26bd fc6e 62bc 4b10 b23b 2511 92bc
00000350: 4a82 1ebd fac6 c53c 067a d53a fb4c 01bd
00000360: 6d7f bc3c be9e 4b3c 58d6 50bb 06ed 9bbc
00000370: 0a3f 26bc 4e85 d83c 7552 f2bc 4086 c93c
00000380: 6898 f7bc f8aa b33c f4db 433c 666a f73c
00000390: 7fc3 0dbd 60ba feba c4fd e2bc 3b52 f7bc
000003a0: 0cf2 1a3c b2d0 aabc 6c06 6bbb ac67 9e3a
000003b0: d965 98bc 2dc6 18bd b880 6c3c 8462 1ebd
000003c0: bd13 04bd f5ba 5ebc a2a2 c63c 8665 31bd
000003d0: 510d a23b 919a 8abc eac7 04bb 2ca6 2db9
000003e0: 3e08 a53c 1c9b 61bc c502 babc 04fd 8c3c
000003f0: 6a6a acbc e0b4 c93b c89d 5d3c b655 933c
0.019408006 0.008873012 -0.022703405 0.0341521 -0.0045879018 0.03516568 0.025001127 -0.0021606348
0.022850025 -0.011760801 0.0129546225 -0.006813798 -0.035346948 -0.026656296 0.028520089 0.009500712
0.011267398 -0.026514843 -0.027960792 -0.024529424 0.022294365 0.03183112 -0.0065268446 0.0014772154
-0.030066704 -0.008398214 0.033773508 0.021360576 0.017469548 -0.010742256 0.0035118833 -0.010207908
0.017679062 0.035657894 0.021660052 0.0126863085 0.02940401 -0.0033653118 0.026151508 0.021448389
0.020440862 0.029978428 -0.019868225 -0.009382422 -0.022296358 0.004595071 -0.017369458 0.02256389
0.02112512 -0.023297723 0.009543374 -0.028790722 0.002032213 0.020843018 -0.0065689646 -0.015283398
-0.034148782 0.008779917 -0.027781105 -0.0057607256 -0.0030460656 0.030970778 -0.017633758 -0.0049869847
0.028117891 0.024433844 0.02229172 0.029600572 0.0032607876 -0.0060981032 -0.019774292 0.01768504
0.020594366 -0.017834825 0.0047355816 0.015756048 -0.0075915754 -0.027024146 -0.015432198 0.017824408
-0.0116537865 -0.024618754 -0.002560418 -0.032245003 0.0066742823 0.0018478371 -0.0055073127 -0.011178767
0.023196906 0.034832146 -0.026180942 -0.028508784 0.009573311 0.019203458 -0.025229752 0.00730389
0.018332291 0.0058426396 0.007319929 -0.037031256 -0.037583843 0.006084546 0.02105698 0.023491256
0.002041418 0.03266361 -0.022807663 -0.007032566 0.015148897 -0.009300675 0.01662514 -0.030641468
-0.009589579 0.035504196 0.018382862 -0.017193045 0.0013514385 0.01879092 0.024287745 0.023453739
0.0031724907 -0.0107394885 0.00015646592 0.0037563108 -0.031547636 -0.03055644 -0.031368006 -0.02291289
-0.041046407 0.016580753 -0.007190782 0.02346895 0.008973575 -0.02209123 -0.012188114 -0.03541289
0.008635879 -0.019271225 0.014690515 -0.03081106 0.02729084 -0.031652346 -0.01187001 0.018990833
-0.02171715 -0.026962176 0.017813079 0.019680833 0.015973087 -0.03963536 -0.009072509 -0.010417192
-0.011608279 -0.0058321506 0.017834948 -0.04233337 0.0021495614 -0.01548171 -0.00018346222 -0.039087974
-0.008994755 -0.023281306 -0.0029621255 0.028261598 -0.02653715 0.022324253 0.0062651522 0.027144078
0.015091248 0.019571621 -0.014970232 0.020367574 0.020724889 -0.014560884 -0.012285965 -0.031519134
-0.023810942 -0.024531225 0.005897236 -0.007180178 0.016808383 0.014495368 0.024301324 -0.032769904
0.010355919 0.008350834 -0.0141681 -0.007363504 -0.028004296 0.011991926 -0.0047389874 -0.020070303
0.027958874 -0.006704174 0.035457265 -0.014387697 0.026349347 -0.030226998 0.030881312 0.017818678
0.0026968345 0.0030151568 0.03254172 -0.025912512 -0.035382528 -0.02077847 0.00027661643 -0.0062786452
-0.040659387 -0.013820406 0.005434071 -0.01783044 -0.038698472 0.024142731 0.0016286976 -0.031567555
0.02300998 0.012427984 -0.003186604 -0.01903392 -0.010146866 0.026430752 -0.029580334 0.024600148
-0.03022404 0.02193211 0.011954296 0.030202102 -0.034610268 -0.0019434206 -0.027708896 -0.030190578
0.009457123 -0.020851467 -0.0035861982 0.001208534 -0.018603252 -0.03729837 0.014434986 -0.03866817
-0.032245386 -0.013594379 0.024247471 -0.04330971 0.004945435 -0.016919406 -0.002026076 -0.0001656047
0.020145532 -0.013769891 -0.022706399 0.017210491 -0.021046836 0.006155595 0.0135263875 0.017985206

fc1.bias f4 [100]
00000000: 05c5 debc 5e90 983d 559a 2abb 4ec6 03bd
00000010: bb6f 0fbd 245d b2bc 5b31 063c deff 83bd
00000020: 3a31 55bd a8a9 c7bc 4fff febc ce00 9039
00000030: f39f 75bc 1d22 6fba b3f8 d5bc 03bc b1bc
00000040: 3416 24bd 12dd 02bd e1ca 47b9 1eee 14bc
00000050: 0125 5bbd ecb2 06ba ac6c d5bd 8959 42bd
00000060: 16a1 afbc ba29 16bd 2562 37ba 0e3b bbbd
00000070: ae4a 8abc 6ce0 48bd 5d31 bbbc 44fb da3c
00000080: dd03 84bd 1b1c 36bd c1b9 cabc 3ec3 27bd
00000090: 7cc1 2abd 3477 7fbd b015 1abe abfb 29bd
000000a0: a3da f1bc 614a aaba 7b71 70bd 8dd1 033c
000000b0: a7ff 99bc 1c4a 3abd a44a 07bd 81b3 96bd
000000c0: 14ea f8bd ff9d 3a3b ca4c 30bd b99e 44bd
000000d0: 7041 2cbc 24f9 5fbb 25db bebd 8288 0fbd
000000e0: 22e6 6abd f8d9 3c3c 4f99 0fbd 566c 08be
000000f0: 82f5 49bd 0bf0 5e3c fe2c 95bc 5bc4 5fbd
00000100: db10 6bbd 6a5f 053c 20ec 21bd c583 42bd
00000110: be14 2a3c 280d 9abc 90ef 60bd 283c 843c
00000120: f9fe 1dbd 8f69 563b 0c0a 0abd 4ae8 cfbd
00000130: b0cf 02bd 64d7 3ebd 6382 033c aa88 9b3b
00000140: 1d66 cc3c c33a a63b 9fba 2d3c d0d5 8abc
00000150: 9779 34bd 30de fcbd b9cf 0c39 1994 a0bc
00000160: a1a6 9bbc 4f95 3abd e19f 01be aa71 cfbc
00000170: aa98 88bc da9d 02bd c63e 7e3a 6381 0cbd
00000180: fb94 acbd 8248 853c 06ac 263d bae1 d6bc
-0.027193556 0.07449411 -0.002603193 -0.03217154 -0.035018664 -0.021772929 0.008190478 -0.06445287
-0.0520489 -0.02437289 -0.0311276 0.0002746642 -0.014991748 -0.000912221 -0.026119566 -0.021696096
-0.040060237 -0.03194911 -0.00019053697 -0.009089975 -0.053502087 -0.0005138356 -0.10421118 -0.04744867
-0.021439116 -0.036660887 -0.00069955207 -0.09142123 -0.016881313 -0.04904215 -0.022850687 0.02673114
-0.06446049 -0.044460397 -0.024746777 -0.04095768 -0.041688427 -0.06236954 -0.15047336 -0.041499775
-0.0295232 -0.0012992137 -0.058701973 0.008045566 -0.018798662 -0.045480832 -0.033030167 -0.073584564
-0.12154022 0.002847552 -0.04304198 -0.048002932 -0.010513648 -0.00341756 -0.09319142 -0.035042293
-0.057348378 0.011526577 -0.035058316 -0.13322577 -0.0493064 0.013607035 -0.01820993 -0.05463062
-0.05738912 0.008140424 -0.039531827 -0.047488946 0.010380922 -0.018805102 -0.054915965 0.016141966
-0.03857324 0.0032716726 -0.033700988 -0.101517275 -0.031936347 -0.04659213 0.008026692 0.0047465162
0.024951035 0.005072923 0.010603576 -0.016947657 -0.04406127 -0.123470664 0.00013428823 -0.019601868
-0.019000353 -0.045552548 -0.12658645 -0.025322754 -0.016674358 -0.03188882 0.0009698685 -0.03430308
-0.08426853 0.016269926 0.040691398 -0.026230682

fc2.weight f4 [10, 100]
00000000: 5ad4 6d3d e698 db3a b1c5 4cbc 2f55 70bd
00000010: 6994 fe3c 944e c83b 0aea d1bd b4ae 3b3a
00000020: b72c 113d dcb6 b3bd 2085 a7bd 65be a93a
00000030: bbf3 6fbd cb7b 1f3a f65b b0bd 85b0 5bbd
00000040: 95f3 673d 7d72 8cba 03c9 e1bc 392d 0c3d
00000050: b477 603d 8c8b 48bd 47bb 813b f1c1 0f3b
00000060: c7a8 92bd 4213 3fbb f11c dcbc 9ee9 383c
00000070: 0437 8b3c 49a0 783d de55 12bd bd7e cdbc
00000080: 4bc8 f73b 2301 763d 86f9 65bd 4a45 9abb
00000090: 84cf e63c 95e0 513d 2f03 973d 0a7c 9dbd
000000a0: bf66 593b 494c c9bd 0482 70bc 5145 81bc
000000b0: eaa9 7bba 8dbc f3bb 894a 84bd 597e a3bd
000000c0: 0c15 7e3d 444d 8237 e396 4dba 5994 8c3d
000000d0: 2b37 fa3c 8108 ab3c 1733 cbbc 0249 d7bc
000000e0: 453e 9cbb 3751 15bd d2fc a83b ff15 64ba
000000f0: edc4 d1bb b98d c03d 6adc bfbd 0e0f 913c
00000100: 73c9 a13d 20ba 36bd 9a04 fa3d 492a 70bd
00000110: 6849 1ebd e5de 933c 1d53 96ba 742c 2bbb
00000120: 8213 93bc 4d71 9a3c 1b4e a0bc 550a 2b3c
00000130: 1b74 32bc 7425 e6bc fbc6 7cbd 874d 10bd
00000140: 435e 743d 603c 8fbd fd33 abbc dd9a 983d
00000150: 8000 00bc 9751 90bd d1f9 ab3d e07f 053d
00000160: e46c 9a3c 44a7 033d 95e5 323d 73de ae3c
00000170: 27c8 19bd 149b ab3c 1d6c 01bb 4214 343d
00000180: 2311 85bc 581d de3c 3f6d f33c 0cc2 d4bc
00000190: b03e a9bd c10d c53c 408d afbd aa90 6abd
000001a0: dc0c 213c 7af1 90ba bfda 9cbd 0fa7 5c3c
000001b0: f87a aabd ff9c e43c a8b9 6e3d 127e 9b3c
000001c0: b780 c43d 99d8 0d3c 4990 65bd a186 1bbd
000001d0: f15a 383d 3f89 473d 84c3 47bc a624 8cbd
000001e0: 12c2 b03c 412d 603b efa0 213d 84f7 953c
000001f0: dee3 a1bc bbce 92bd b217 e83c 72b2 433d
00000200: ca2d 35bd 8fa6 893c fdb8 99bd 6d91 b4bc
00000210: b323 3d3c b483 bcbd 9260 653d c5e8 18bd
00000220: c522 ad38 0391 b03d 2a03 833c 577d e23b
00000230: 324e 543d bbfd b03c 0982 c5bd eeaa 173d
00000240: 6528 7c3d 92ec 82bd 6974 96bd 6ba5 c83c
00000250: 25de 28bc 5d9d d2bc 09ce 2e3d eba5 f93a
00000260: 4cd3 e13c ac1d 0e3c 9baf 05bb 7192 523d
00000270: 6863 843b ed8f ca3c 1eb9 26bd adb8 063d
00000280: 478d a6bd a456 d1ba 0f63 0bbd 2b16 9ebd
00000290: ac03 383d 128d abbd 9a7c 063b 3849 0a3d
000002a0: 8f60 74bc d36c 10bd 852f 253c d940 a93d
000002b0: d8e3 a83d 74e3 b2bd a9ea 35bd 65c5 1fbb
000002c0: 69d6 863c 22cc 59bc 6f08 b7bd 8065 943d
000002d0: 5f2f 9cbc a6e9 bc3d 4042 393d c546 9f3d
000002e0: 7383 3b3d 86a4 6e3d 5f2d b3bd cd83 ac3c
000002f0: d36a b43c 6ba9 4cbd 9bb3 40bd a836 8c3d
00000300: 41b4 02bd 518f 813d 5a4a 753d ff02 15bc
00000310: 1a07 c63d b173 2e3a 3e0d 263d d4b2 1e3d
00000320: a4d0 0ebd bf3b b23c cb8b c53d 2313 58bd
00000330: 7539 90bd 70ff 54bd 349f 803d 30e2 81bb
00000340: 141c af3c 7c19 9b3c 8922 54bd c749 e4bd
00000350: f204 0ebd 05b4 64bd ce46 c0bd df98 6dbd
00000360: e327 bc3d a1ca 923d 5593 373d f863 033d
00000370: 881f 10bd 9176 7cbd 004c 4e3c ac68 143d
00000380: b259 2f3c d14e 3fbd 3190 9abc ac7f 613d
00000390: 4b0b 9bbd 78a2 5c3d dc11 61bd a60b b5bc
000003a0: c0c0 71bc a5a3 cdbc f44f 9d3d dfa7 4c3d
000003b0: ea2a f2bc 73f7 243d e32e 5b3d 5fa6 89bd
000003c0: cf57 e1bc a7a7 b6bb 2c5f ecbd 4d62 633d
000003d0: a204 c23c 722b bebb 9f65 c53c ef47 263d
000003e0: fdfd 673d a3a5 643c 80f8 b8bc c73c 513c
000003f0: 4c6d 63bd daef 953c fdfd 5d3c ea13 cc3c
0.058063842 0.0016753941 -0.012498305 -0.058674987 0.031076627 0.006112883 -0.102497175 0.00071595167
0.035443034 -0.08775112 -0.081796885 0.0012950419 -0.05858205 0.0006083815 -0.0861129 -0.05363514
0.056628782 -0.0010715273 -0.02756167 0.034222815 0.054801658 -0.048961207 0.003959093 0.0021935666
-0.07161098 -0.0029155766 -0.02686927 0.011286167 0.016994007 0.060699735 -0.03572642 -0.025084848
0.0075617186 0.060059678 -0.056146167 -0.004707967 0.028175123 0.05123957 0.07373654 -0.07689674
0.0033172814 -0.09829003 -0.014679436 -0.015780123 -0.00096002093 -0.0074382485 -0.06459529 -0.07983083
0.06203179 1.5533187e-05 -0.0007842613 0.068642326 0.030543884 0.020878078 -0.024804635 -0.02627993
-0.0047681653 -0.036454406 0.0051570917 -0.00087007874 -0.006401649 0.094020315 -0.093682125 0.017707374
0.078997515 -0.044611096 0.12207909 -0.058634076 -0.038644224 0.01805062 -0.0011468861 -0.0026119025
-0.017953638 0.018852854 -0.019568494 0.010439475 -0.0108919395 -0.02809403 -0.0617132 -0.035230186
0.059660207 -0.069939375 -0.020898813 0.07451413 -0.007812619 -0.07046812 0.08397258 0.032592654
0.018850751 0.03214194 0.043675978 0.021346306 -0.037544396 0.02094797 -0.0019748278 0.04396463
-0.016243523 0.027113602 0.029715179 -0.025971435 -0.0826391 0.02405441 -0.08571863 -0.05726687
0.009829726 -0.0011058294 -0.0765891 0.013467564 -0.08324236 0.027906893 0.058282524 0.018981013
0.09594863 0.008657598 -0.056045804 -0.03797019 0.045008603 0.048714872 -0.012192611 -0.06842928
0.021576915 0.003420666 0.03946012 0.018306501 -0.019761976 -0.07168337 0.028331611 0.0477776
-0.04423312 0.016803054 -0.07505987 -0.022042 0.011544156 -0.09204808 0.0560003 -0.03733136
8.255759e-05 0.08621409 0.01599272 0.0069119143 0.051832385 0.021605363 -0.09643943 0.037028246
0.06156196 -0.063927785 -0.07346422 0.02449294 -0.01030687 -0.025709802 0.04267696 0.001904664
0.027566575 0.0086740665 -0.0020398858 0.05140919 0.0040401705 0.024726832 -0.040703885 0.032890964
-0.08132415 -0.0015971255 -0.034030017 -0.07719072 0.044925377 -0.083765164 0.0020521046 0.033761233
-0.0149155995 -0.035260033 0.01008213 0.08264322 0.08246583 -0.087347895 -0.044413242 -0.002437913
0.01645966 -0.013293298 -0.089371555 0.07245922 -0.019065557 0.092242524 0.045229197 0.0777717
0.045779657 0.05826237 -0.08748888 0.021058941 0.022023594 -0.049966257 -0.047046285 0.06846362
-0.031910185 0.063261636 0.05988536 -0.009094953 0.09669323 0.00066548126 0.040539972 0.038744763
-0.034866944 0.021757005 0.09645804 -0.052752625 -0.07042209 -0.052001417 0.062803656 -0.003963731
0.021375693 0.01893305 -0.051790748 -0.111468844 -0.034672685 -0.055835743 -0.09388505 -0.058007117
0.09187295 0.07167555 0.04481824 0.03207776 -0.03518632 -0.06163651 0.012591362 0.036232635
0.010702537 -0.046706025 -0.018867584 0.055053398 -0.07570513 0.05386588 -0.054948673 -0.022100281
-0.014755428 -0.025102446 0.076812655 0.04996478 -0.029561479 0.04027505 0.05351151 -0.06721186
-0.02750769 -0.005574185 -0.1154159 0.05551367 0.02368385 -0.005803519 0.024096308 0.040595945
0.056638706 0.0139555065 -0.022579432 0.012770838 -0.055524155 0.018302847 0.013549325 0.02491184

fc2.bias f4 [10]
00000000: 9f5a 033e 31ac 6ebe 311e 59be 0842 103e
00000010: 0294 78be a738 70be 7f96 31be 8f55 debd
00000020: 33fd ea3e ea39 7b3e
0.12827538 -0.23307873 -0.21202923 0.14087689 -0.2427521 -0.23459111 -0.17342566 -0.10856163
0.458963 0.24533811

exp_avg f4 [100, 784]
00000000: 0000 0000 0000 0000 0000 0000 0000 0000
00000010: 0000 0000 0000 0000 0000 0000 0000 0000
00000020: 0000 0000 0000 0000 0000 0000 0000 0000
00000030: 0000 0000 0000 0000 0000 0000 0000 0000
00000040: 0000 0000 0000 0000 0000 0000 0000 0000
00000050: 0000 0000 0000 0000 0000 0000 0000 0000
00000060: 0000 0000 0000 0000 0000 0000 0000 0000
00000070: 0000 0000 0000 0000 0000 0000 0000 0000
00000080: 0000 0000 0000 0000 0000 0000 0000 0000
00000090: 0000 0000 0000 0000 0000 0000 0000 0000
000000a0: 0000 0000 0400 0000 0400 0000 0400 0000
000000b0: 0000 0000 0000 0000 0000 0000 0000 0000
000000c0: 0000 0000 0000 0000 0000 0000 0000 0000
000000d0: 0000 0000 0000 0000 0000 0000 0000 0000
000000e0: 0000 0000 0000 0000 0000 0000 0000 0000
000000f0: 0000 0000 0000 0000 0000 0000 0000 0000
00000100: 0000 0000 0000 0000 0000 0000 0000 0000
00000110: 0000 0000 0400 0000 0400 0000 0400 0000
00000120: 0400 0000 0000 0000 0000 0000 0000 0000
00000130: 0000 0000 0000 0000 0000 0000 0000 0000
00000140: 0000 0000 0000 0000 0000 0000 0000 0000
00000150: 0000 0000 0000 0000 0000 0000 0000 0000
00000160: 0000 0000 0000 0000 0000 0000 0000 0000
00000170: 0000 0000 0000 0000 0000 0000 0000 0000
00000180: 0000 0000 0400 0000 0400 0000 0400 0000
00000190: 0400 0000 0400 0000 0000 0000 0000 0000
000001a0: 0000 0000 0000 0000 0000 0000 0000 0000
000001b0: 0000 0000 0000 0000 0000 0000 0000 0000
000001c0: 0000 0000 0000 0000 0000 0000 0000 0000
000001d0: 0000 0000 0000 0000 0000 0000 0000 0000
000001e0: 0000 0000 0000 0000 0000 0000 0000 0000
000001f0: 0400 0000 0400 0000 0400 0000 0400 0000
00000200: 0400 0000 0400 0000 0400 0000 0400 0000
00000210: 0400 0000 0400 0000 0400 0000 0000 0000
00000220: 0000 0000 0000 0000 0000 0000 0000 0000
00000230: 0000 0000 0000 0000 0000 0000 0000 0000
00000240: 0000 0000 0000 0000 0400 0000 0400 0000
00000250: 0000 0000 0400 0000 0400 0000 0400 0000
00000260: 0400 0000 0400 0000 0400 0000 0400 0000
00000270: 0400 0000 0400 0000 0400 0000 0400 0000
00000280: 0400 0000 0400 0000 0400 0000 0000 0000
00000290: 0000 0000 0000 0000 0000 0000 0000 0000
000002a0: 0000 0000 0000 0000 0000 0000 0000 0000
000002b0: 0000 0000 0000 0000 0400 0080 0400 0080
000002c0: 0400 0000 0400 0000 0400 0000 0400 0000
000002d0: 0400 0000 0400 0000 0400 0000 0400 0000
000002e0: 0400 0000 0400 0000 0400 0000 0400 0000
000002f0: 0400 0000 0400 0000 0400 0000 0400 0000
00000300: 0000 0000 0000 0000 0000 0000 0000 0000
00000310: 0000 0000 0000 0000 0000 0000 0000 0000
00000320: 0000 0000 0400 0080 0400 0080 0400 0080
00000330: 0400 0000 0400 0000 0400 0000 0400 0000
00000340: 0400 0000 0400 0000 0400 0000 0400 0000
00000350: 0400 0000 0400 0000 0400 0000 0400 0000
00000360: 0400 0000 0400 0000 0400 0000 0400 0000
00000370: 0000 0000 0000 0000 0000 0000 0000 0000
00000380: 0000 0000 0000 0000 0000 0000 0000 0000
00000390: 0000 0000 0400 0080 0400 0000 0400 0000
000003a0: 0400 0000 0400 0000 0400 0000 0400 0000
000003b0: 0400 0000 0400 0000 0400 0000 0400 0000
000003c0: 0400 0000 0400 0000 0400 0000 0400 0000
000003d0: 0400 0000 0400 0000 0400 0000 0400 0000
000003e0: 0000 0000 0000 0000 0000 0000 0000 0000
000003f0: 0000 0000 0000 0000 0000 0000 0000 0000
0.0 0.0 0.0 0.0 0.0 0.0 0.0 0.0
0.0 0.0 0.0 0.0 0.0 0.0 0.0 0.0
0.0 0.0 0.0 0.0 0.0 0.0 0.0 0.0
0.0 0.0 0.0 0.0 0.0 0.0 0.0 0.0
0.0 0.0 0.0 0.0 0.0 0.0 0.0 0.0
0.0 6e-45 6e-45 6e-45 0.0 0.0 0.0 0.0
0.0 0.0 0.0 0.0 0.0 0.0 0.0 0.0
0.0 0.0 0.0 0.0 0.0 0.0 0.0 0.0
0.0 0.0 0.0 0.0 0.0 6e-45 6e-45 6e-45
6e-45 0.0 0.0 0.0 0.0 0.0 0.0 0.0
0.0 0.0 0.0 0.0 0.0 0.0 0.0 0.0
0.0 0.0 0.0 0.0 0.0 0.0 0.0 0.0
0.0 6e-45 6e-45 6e-45 6e-45 6e-45 0.0 0.0
0.0 0.0 0.0 0.0 0.0 0.0 0.0 0.0
0.0 0.0 0.0 0.0 0.0 0.0 0.0 0.0
0.0 0.0 0.0 0.0 6e-45 6e-45 6e-45 6e-45
6e-45 6e-45 6e-45 6e-45 6e-45 6e-45 6e-45 0.0
0.0 0.0 0.0 0.0 0.0 0.0 0.0 0.0
0.0 0.0 6e-45 6e-45 0.0 6e-45 6e-45 6e-45
6e-45 6e-45 6e-45 6e-45 6e-45 6e-45 6e-45 6e-45
6e-45 6e-45 6e-45 0.0 0.0 0.0 0.0 0.0
0.0 0.0 0.0 0.0 0.0 0.0 -6e-45 -6e-45
6e-45 6e-45 6e-45 6e-45 6e-45 6e-45 6e-45 6e-45
6e-45 6e-45 6e-45 6e-45 6e-45 6e-45 6e-45 6e-45
0.0 0.0 0.0 0.0 0.0 0.0 0.0 0.0
0.0 -6e-45 -6e-45 -6e-45 6e-45 6e-45 6e-45 6e-45
6e-45 6e-45 6e-45 6e-45 6e-45 6e-45 6e-45 6e-45
6e-45 6e-45 6e-45 6e-45 0.0 0.0 0.0 0.0
0.0 0.0 0.0 0.0 0.0 -6e-45 6e-45 6e-45
6e-45 6e-45 6e-45 6e-45 6e-45 6e-45 6e-45 6e-45
6e-45 6e-45 6e-45 6e-45 6e-45 6e-45 6e-45 6e-45
0.0 0.0 0.0 0.0 0.0 0.0 0.0 0.0

exp_avg_sq f4 [100, 784]
00000000: 0000 0000 0000 0000 0000 0000 0000 0000
00000010: 0000 0000 0000 0000 0000 0000 0000 0000
00000020: 0000 0000 0000 0000 0000 0000 0000 0000
00000030: 0000 0000 0000 0000 0000 0000 0000 0000
00000040: 0000 0000 0000 0000 0000 0000 0000 0000
00000050: 0000 0000 0000 0000 0000 0000 0000 0000
00000060: 0000 0000 0000 0000 0000 0000 0000 0000
00000070: 0000 0000 0000 0000 0000 0000 0000 0000
00000080: 0000 0000 0000 0000 0000 0000 0000 0000
00000090: 0000 0000 0000 0000 0000 0000 0000 0000
000000a0: 0000 0000 52d5 2633 e8c0 a334 be50 ba32
000000b0: 0000 0000 0000 0000 0000 0000 0000 0000
000000c0: 0000 0000 0000 0000 0000 0000 0000 0000
000000d0: 0000 0000 0000 0000 0000 0000 0000 0000
000000e0: 0000 0000 0000 0000 0000 0000 0000 0000
000000f0: 0000 0000 0000 0000 0000 0000 0000 0000
00000100: 0000 0000 0000 0000 0000 0000 0000 0000
00000110: 0000 0000 f8b7 7c2f 801d 5e34 59d9 8f34
00000120: 3077 0733 0000 0000 0000 0000 0000 0000
00000130: 0000 0000 0000 0000 0000 0000 0000 0000
00000140: 0000 0000 0000 0000 0000 0000 0000 0000
00000150: 0000 0000 0000 0000 0000 0000 0000 0000
00000160: 0000 0000 0000 0000 0000 0000 0000 0000
00000170: 0000 0000 0000 0000 0000 0000 0000 0000
00000180: 0000 0000 e3e4 272e 25c2 c733 1b71 a634
00000190: 8b96 0634 443d 952f 0000 0000 0000 0000
000001a0: 0000 0000 0000 0000 0000 0000 0000 0000
000001b0: 0000 0000 0000 0000 0000 0000 0000 0000
000001c0: 0000 0000 0000 0000 0000 0000 0000 0000
000001d0: 0000 0000 0000 0000 0000 0000 0000 0000
000001e0: 0000 0000 0000 0000 0000 0000 0000 0000
000001f0: 8627 472f 4ae5 1b33 7944 cc34 0c3b 6635
00000200: 2aa4 a835 4484 2636 8d24 7335 840d 3f34
00000210: 5a55 1835 6a54 9e35 c708 1534 0000 0000
00000220: 0000 0000 0000 0000 0000 0000 0000 0000
00000230: 0000 0000 0000 0000 0000 0000 0000 0000
00000240: 0000 0000 0000 0000 e37c c430 fe76 5432
00000250: 0000 0000 7b9d b333 97ea 0035 ba97 9034
00000260: 2286 6835 2c68 0536 6ad7 3036 54b4 4036
00000270: 9c45 7d36 51ef c336 6b00 8e36 6a8c ed35
00000280: c27d 4e36 63d0 fe34 6bdb e432 0000 0000
00000290: 0000 0000 0000 0000 0000 0000 0000 0000
000002a0: 0000 0000 0000 0000 0000 0000 0000 0000
000002b0: 0000 0000 0000 0000 0000 0000 2d09 0000
000002c0: 7fed 1e34 741b fc34 c68c 5035 7d53 4a36
000002d0: c587 8036 6616 3136 e451 0b36 eae3 3a36
000002e0: 3cf5 b736 b56a fd36 a9d4 2f37 99c7 a936
000002f0: 2925 8b36 f50d 3135 e0ba 1b34 b1bf 5030
00000300: 0000 0000 0000 0000 0000 0000 0000 0000
00000310: 0000 0000 0000 0000 0000 0000 0000 0000
00000320: 0000 0000 0000 0000 0000 0000 3480 0000
00000330: 82be bc33 d098 cc34 132e e135 1b94 7736
00000340: f2ad 4c36 be25 ec35 d01a a935 202a 1e36
00000350: 736c b836 9da0 2f37 6700 3a37 7d39 dc36
00000360: 0b63 1e36 efd7 3035 6c5d 3934 b4a7 212f
00000370: 0000 0000 0000 0000 0000 0000 0000 0000
00000380: 0000 0000 0000 0000 0000 0000 0000 0000
00000390: 0000 0000 0000 0000 6c0b e82e d812 2b31
000003a0: 7fc4 7831 0017 e533 659f 4635 42fa 8335
000003b0: d3d9 8135 5407 8835 adfd 3d36 b5af 1836
000003c0: e510 b236 f31a 1937 2e81 1037 0794 9736
000003d0: 77d4 df35 abcd 0635 ba1e dc33 4f17 e20f
000003e0: 0000 0000 0000 0000 0000 0000 0000 0000
000003f0: 0000 0000 0000 0000 0000 0000 0000 0000
0.0 0.0 0.0 0.0 0.0 0.0 0.0 0.0
0.0 0.0 0.0 0.0 0.0 0.0 0.0 0.0
0.0 0.0 0.0 0.0 0.0 0.0 0.0 0.0
0.0 0.0 0.0 0.0 0.0 0.0 0.0 0.0
0.0 0.0 0.0 0.0 0.0 0.0 0.0 0.0
0.0 3.88439e-08 3.0501474e-07 2.1689967e-08 0.0 0.0 0.0 0.0
0.0 0.0 0.0 0.0 0.0 0.0 0.0 0.0
0.0 0.0 0.0 0.0 0.0 0.0 0.0 0.0
0.0 0.0 0.0 0.0 0.0 2.2984625e-10 2.0686093e-07 2.6793967e-07
3.1540537e-08 0.0 0.0 0.0 0.0 0.0 0.0 0.0
0.0 0.0 0.0 0.0 0.0 0.0 0.0 0.0
0.0 0.0 0.0 0.0 0.0 0.0 0.0 0.0
0.0 3.8174696e-11 9.301974e-08 3.1002205e-07 1.253449e-07 2.7146474e-10 0.0 0.0
0.0 0.0 0.0 0.0 0.0 0.0 0.0 0.0
0.0 0.0 0.0 0.0 0.0 0.0 0.0 0.0
0.0 0.0 0.0 0.0 1.8112986e-10 3.6297287e-08 3.8047781e-07 8.57676e-07
1.2564753e-06 2.4812916e-06 9.057774e-07 1.7793178e-07 5.6748615e-07 1.1796485e-06 1.38799e-07 0.0
0.0 0.0 0.0 0.0 0.0 0.0 0.0 0.0
0.0 0.0 1.4296372e-09 1.236708e-08 0.0 8.3639826e-08 4.802509e-07 2.6932486e-07
8.6621924e-07 1.987918e-06 2.6351431e-06 2.8715194e-06 3.7740456e-06 5.839313e-06 4.2319784e-06 1.7698742e-06
3.0769593e-06 4.7462808e-07 2.6642473e-08 0.0 0.0 0.0 0.0 0.0
0.0 0.0 0.0 0.0 0.0 0.0 0.0 3.292e-42
1.4801297e-07 4.6958633e-07 7.769089e-07 3.0148942e-06 3.830503e-06 2.6388093e-06 2.076028e-06 2.7848823e-06
5.482374e-06 7.55241e-06 1.0480327e-05 5.0598287e-06 4.146849e-06 6.595795e-07 1.4503485e-07 7.594237e-10
0.0 0.0 0.0 0.0 0.0 0.0 0.0 0.0
0.0 0.0 0.0 4.599e-41 8.7890854e-08 3.8109147e-07 1.6777216e-06 3.6892077e-06
3.0499618e-06 1.7594355e-06 1.2599285e-06 2.3568355e-06 5.4962525e-06 1.04682085e-05 1.1086558e-05 6.5632034e-06
2.3601485e-06 6.5879334e-07 1.7263454e-07 1.4702445e-10 0.0 0.0 0.0 0.0
0.0 0.0 0.0 0.0 0.0 0.0 1.05521675e-10 2.4894486e-09
3.6200445e-09 1.0667827e-07 7.39927e-07 9.833095e-07 9.674644e-07 1.0134922e-06 2.8310853e-06 2.275204e-06
5.30678e-06 9.125785e-06 8.613146e-06 4.5173833e-06 1.667663e-06 5.0218176e-07 1.02501374e-07 2.2294299e-29
0.0 0.0 0.0 0.0 0.0 0.0 0.0 0.0

exp_avg f4 [100]
00000000: 0400 0000 7b5f be38 e3bd 94a8 ddb0 50a8
00000010: 9c8a e334 0400 0000 0400 0000 2a62 dcb6
00000020: e5bc 8739 aea1 2320 b427 89ad f9b6 d40c
00000030: 5df1 91b4 0400 0000 0400 0000 4539 72b9
00000040: 753a e002 0b18 15b8 0400 0000 7793 6904
00000050: 0141 06b2 0400 0000 e566 67b9 a3a9 adb7
00000060: 7f77 74a1 0400 0000 b0f5 8bb3 eda6 e436
00000070: 0400 0000 8dbb a231 0400 0080 c343 2739
00000080: dd52 2238 3bd1 02b7 0400 0000 0400 0000
00000090: 754a 7836 0400 0000 48e4 92b7 57e3 97b9
000000a0: 0400 0000 923d 3490 0d27 0138 0400 0000
000000b0: 0400 0000 1580 1b10 4ec5 cda4 0400 0000
000000c0: 2c06 0936 0400 0000 0400 0080 d303 73b6
000000d0: d1cc 27b9 0400 0000 1b27 84b7 edf5 05b6
000000e0: 188c 1339 b5d0 65b9 42ca 85b8 248a c8b8
000000f0: 162c 8739 bb16 85ae 01d1 a0b5 0400 0080
00000100: 74c4 f32d 0400 0000 0400 0080 9f3d 49ac
00000110: f29b 1bb5 ac87 86aa 0c82 7038 0400 0000
00000120: 6ca1 cb2b 0400 0000 0400 0000 cac6 c638
00000130: 41de 7ab7 891e 1138 0400 0000 0400 0000
00000140: 0400 0080 1d00 0000 0400 0000 0400 0000
00000150: 0400 0000 825c dfb8 0400 0000 dc5b 49b7
00000160: ee97 7239 0400 0000 8609 f7b3 0400 0000
00000170: ddcf 7bb7 0400 0000 f448 e8a9 7500 d915
00000180: fde7 7136 0400 0000 7441 0db8 0400 0000
6e-45 9.0776906e-05 -1.6513651e-14 -1.15846706e-14 4.2382896e-07 6e-45 6e-45 -6.5679387e-06
0.00025889944 1.3860132e-19 -1.5592728e-11 3.2773895e-31 -2.718397e-07 6e-45 6e-45 -0.00023100253
3.2947395e-37 -3.554676e-05 6e-45 2.7456731e-36 -7.814607e-09 6e-45 -0.00022068208 -2.07022e-05
-8.282857e-19 6e-45 -6.517382e-08 6.814362e-06 6e-45 4.7361426e-09 -6e-45 0.00015951604
3.8700982e-05 -7.797319e-06 6e-45 6e-45 3.699822e-06 6e-45 -1.7510858e-05 -0.00028970346
6e-45 -3.5546173e-29 3.0792366e-05 6e-45 6e-45 3.066703e-29 -8.9238825e-17 6e-45
2.0418183e-06 6e-45 -6e-45 -3.6212048e-06 -0.00016002661 6e-45 -1.5753836e-05 -1.9961692e-06
0.00014071201 -0.00021916891 -6.379608e-05 -9.562474e-05 0.00025782053 -6.0521775e-11 -1.1981757e-06 -6e-45
2.7713144e-11 6e-45 -6e-45 -2.8598025e-12 -5.796893e-07 -2.3897323e-13 5.7341575e-05 6e-45
1.4468821e-12 6e-45 6e-45 9.478403e-05 -1.4952909e-05 3.4599132e-05 6e-45 6e-45
-6e-45 4e-44 6e-45 6e-45 6e-45 -0.000106506996 6e-45 -1.2001921e-05
0.00023135517 6e-45 -1.1503566e-07 6e-45 -1.5009163e-05 6e-45 -1.0315525e-13 8.7646323e-26
3.6046833e-06 6e-45 -3.3677978e-05 6e-45

exp_avg_sq f4 [100]
00000000: 7c35 0030 f722 da34 9016 c132 ee9f ea31
00000010: cf70 2833 527e 0e31 7033 6e2e e5d3 9334
00000020: bf5c b033 fe36 eb2f 6054 a131 a207 8e32
00000030: 4167 fd32 86d9 aa2f a79e ef2f a53d e034
00000040: c096 0132 b5a4 4e34 cff3 b92f 301a 8030
00000050: 8dcb 0233 0e9a 1930 c6e9 b233 3ab3 a034
00000060: 8f31 fd31 b7b3 0b32 829a 7831 af29 1b34
00000070: d8bf 4f2f dfff ca31 e527 9a30 912b 0934
00000080: c204 7c33 cc99 d333 4911 002f 750d 0a32
00000090: 9292 ce33 30f9 2431 2593 2534 ba44 7034
000000a0: ff76 9730 29dd 2331 68a8 3c33 cee5 2731
000000b0: 04a2 2631 4eea 0830 92cc 1c32 473f 6d2e
000000c0: 4344 d833 62bc 632e a6f2 0231 d066 3633
000000d0: ad24 2433 96a7 9930 1ab2 5a34 00c1 2c33
000000e0: 886d d933 4d9b cf34 bf8b a533 a467 b833
000000f0: 6747 8933 a5f0 252f fda5 3c32 1cfb 8231
00000100: cfff 1532 e51b 062f 5eac 0e31 e111 ad32
00000110: 9353 8432 3f1d 9a30 7dff 5934 64fb c92f
00000120: 5ca0 0332 dc70 1031 70d3 1d31 3627 9c33
00000130: 815a 0534 3685 3034 bb8e a531 b2e4 602d
00000140: d7cc 2d30 e09d 3631 1f9f 3430 a8ae b230
00000150: 926b c82f c71f 0134 b4af 9d2e 41e4 0734
00000160: 8e4d be34 7ab9 3c30 27c4 9433 f113 e02e
00000170: f614 7a33 e77f 0b2b 0055 1b32 699d 0e33
00000180: 66fb b033 57a2 0630 364d 8634 3801 1d2e
4.6642135e-10 4.0631105e-07 2.2478417e-08 6.8284782e-09 3.9218147e-08 2.0735524e-09 5.416062e-11 2.7535057e-07
8.212509e-08 4.2785325e-10 4.695309e-09 1.6534447e-08 2.950003e-08 3.107738e-10 4.3586576e-10 4.1768104e-07
7.543065e-09 1.9245165e-07 3.382454e-10 9.320669e-10 3.0453112e-08 5.588e-10 8.331294e-08 2.9932727e-07
7.3689033e-09 8.131727e-09 3.6176577e-09 1.4450664e-07 1.8894697e-10 5.908063e-09 1.1216313e-09 1.2774969e-07
5.867765e-08 9.853429e-08 1.1647673e-10 8.035717e-09 9.6192835e-08 2.4006788e-09 1.5420353e-07 2.2376744e-07
1.1020517e-09 2.3845337e-09 4.3925326e-08 2.4432327e-09 2.4248274e-09 4.980948e-10 9.126909e-09 5.3943763e-11
1.00707005e-07 5.1781142e-11 1.905542e-09 4.2468685e-08 3.8217582e-08 1.1179846e-09 2.0367625e-07 4.0222403e-08
1.01247736e-07 3.866975e-07 7.708831e-08 8.58702e-08 6.392548e-08 1.5092157e-10 1.0980782e-08 3.812046e-09
8.731106e-09 1.2197139e-10 2.07617e-09 2.0147981e-08 1.5404828e-08 1.1213287e-09 2.0302646e-07 3.674031e-10
7.661665e-09 2.101891e-09 2.2966695e-09 7.2714485e-08 1.2419515e-07 1.6439739e-07 4.8183586e-09 1.2783706e-11
6.322813e-10 2.6574227e-09 6.5709743e-10 1.3000845e-09 3.645622e-10 1.2025622e-07 7.1707446e-11 1.2655893e-07
3.5446686e-07 6.865758e-10 6.927467e-08 1.0189883e-10 5.8226725e-08 4.956022e-13 9.041514e-09 3.3205115e-08
8.241368e-08 4.8979615e-10 2.5015623e-07 3.569875e-11

exp_avg f4 [10, 100]
00000000: 0400 0000 6dce 1d3b 53a8 b91e 7fa7 8327
00000010: 3355 c237 0400 0000 0400 0000 50da 0cba
00000020: 009b 813a 9c5d 3712 2f80 b02a 3e37 2d0c
00000030: 8359 aa2f 0400 0000 0400 0000 f391 d33a
00000040: 4036 0100 1c83 a7b6 0400 0000 3405 ec87
00000050: d8d6 2636 0400 0000 f772 4d39 529f 343e
00000060: 177f e11e 0400 0000 ca80 2f2d 04ee 9f39
00000070: 0400 0000 7b7b 0cb8 0400 0000 fdb9 3abd
00000080: cc2b ca3c fe6d 41bc 0400 0080 0400 0000
00000090: 25d8 923c 0400 0080 b55e 50be dc78 1c3a
000000a0: 0400 0080 543b 5108 392f 04be 0400 0000
000000b0: 0400 0000 9c8e 3908 2f03 0723 0400 0000
000000c0: 06ca a2be 0400 0000 0400 0000 3955 b63c
000000d0: 1094 ac3b 0400 0000 0ee5 9937 bbdd 2036
000000e0: e246 74bb e22a 3bbd c668 e33d 0200 633a
000000f0: a63b 33be d502 d228 f511 4429 0400 0000
00000100: 670d 97b4 0400 0000 0400 0080 89de 622b
00000110: 7310 b72f 36f4 e12b c995 ff39 0400 0000
00000120: fe9d 252d 0400 0000 0400 0000 ed99 ae3b
00000130: 5c91 673b 31d7 043b 0400 0000 0400 0000
00000140: 0400 0080 0400 0000 0400 0000 0400 0000
00000150: 0400 0000 105a 7239 0400 0000 6cbe e43b
00000160: 5064 b43d 0400 0000 dee3 75b9 0400 0000
00000170: 2f08 f436 0400 0000 c642 7314 09ee 0991
00000180: 96f3 e337 0400 0000 7298 75bc 0400 0000
00000190: 0400 0080 62f6 bb3d 5214 a220 64ad 2c2a
000001a0: bedf 1835 0400 0000 0400 0080 59db ac3a
000001b0: bddc 223b 5549 0da3 c28a 022d 8ca7 e40f
000001c0: 58e1 e2b8 0400 0000 0400 0000 4cef ca3b
000001d0: 2a40 ab06 86b1 8a3b 0400 0000 cb34 0300
000001e0: c129 262a 0400 0000 1f6c 003e f9ae 363b
000001f0: 3d1d 9b22 0400 0000 0d09 e52e 60e0 273c
00000200: 0400 0000 17c2 5f24 0400 0000 b4bc 1139
00000210: d078 f736 8f6b 0438 0400 0000 0400 0000
00000220: b857 9736 0400 0000 c38a ee3a e3b9 4a3e
00000230: 0400 0000 9be5 7709 4e13 dd35 0400 0000
00000240: 0400 0000 0cd9 5b09 81cd 8b26 0400 0000
00000250: e7a7 08bb 0400 0000 0400 0000 f4bd bd38
00000260: dda9 dd36 0400 0000 2327 143a 8086 4c3d
00000270: c8c2 923b da25 ab3d b585 1338 1f15 16be
00000280: 0b6f 0235 ff71 da2f c0e7 0f37 0400 0000
00000290: d6ca fb2b 0400 0080 0400 0000 4b40 0b30
000002a0: 97e4 7036 3df9 ae28 88aa 813a 0400 0000
000002b0: 3893 822f 0400 0000 0400 0000 41ec c33a
000002c0: 2547 5e3c fdec 1c3a 0400 0080 0400 0000
000002d0: 0400 0000 2103 0000 0400 0000 0400 0000
000002e0: 0400 0000 80f9 20be 0400 0000 3830 eb3a
000002f0: 2795 26bf 0400 0000 a51c bc33 0400 0000
00000300: 7361 f2bb 0400 0000 e007 9fae 1c6a d312
00000310: 8362 6b3a 0400 0000 feb7 d53d 0400 0000
00000320: 0400 0080 3c6f 6ebd e57c 5f25 0024 1c29
00000330: 6133 e32e 0400 0000 0400 0000 a207 e1bc
00000340: e272 6e3d ff92 3621 bbe5 3c2d f237 a40e
00000350: d872 5a36 0400 0000 0400 0000 6d75 103d
00000360: 4d40 1c00 f796 37be 0400 0000 e1a6 6009
00000370: 6ce6 2a22 0400 0000 92d3 4c3c 23c4 673e
00000380: 01c7 8c18 0400 0080 752f a12b 6290 243d
00000390: 0400 0000 9868 a837 0400 0000 53f0 503d
000003a0: df74 c6b9 4ffb 1a3a 0400 0080 0400 0080
000003b0: c832 8136 0400 0080 3bfb d33e 157f 133e
000003c0: 0400 0000 931c eb0a cc60 0737 0400 0000
000003d0: 0400 0000 5a82 d00a 7ef4 072a 0400 0000
000003e0: 03ea 2d3e 0400 0000 0400 0000 8681 df3a
000003f0: a374 2f37 0400 0000 c652 ae3c 3903 1f3c
6e-45 0.0024079338 1.9657254e-20 3.6541404e-15 2.3166276e-05 6e-45 6e-45 -0.0005373107
0.0009888113 5.786e-28 3.1352826e-13 1.3344059e-31 3.0986422e-10 6e-45 6e-45 0.0016141519
1.11297e-40 -4.992251e-06 6e-45 -3.5512391e-34 2.4860983e-06 6e-45 0.00019593151 0.17638901
2.3875365e-20 6e-45 9.976195e-12 0.0003050418 6e-45 -3.34936e-05 6e-45 -0.04558753
0.024679087 -0.011806009 -6e-45 6e-45 0.017925331 -6e-45 -0.20348628 0.0005968937
-6e-45 6.296339e-34 -0.12908639 6e-45 6e-45 5.583905e-34 7.319039e-18 6e-45
-0.31794757 6e-45 6e-45 0.022257434 0.005266674 6e-45 1.8345683e-05 2.3970922e-06
-0.0037273695 -0.045695193 0.11103968 0.0008659364 -0.17503223 2.3315912e-14 4.3536318e-14 6e-45
-2.8135693e-07 6e-45 -6e-45 8.060016e-13 3.3299194e-10 1.6054994e-12 0.0004874899 6e-45
9.414245e-12 6e-45 6e-45 0.005328408 0.0035334444 0.0020269866 6e-45 6e-45
-6e-45 6e-45 6e-45 6e-45 6e-45 0.0002311247 6e-45 0.006980708
0.088081956 6e-45 -0.00023449908 6e-45 7.2727194e-06 6e-45 1.22815335e-26 -1.0880745e-28
2.7173937e-05 6e-45 -0.014989959 6e-45 -6e-45 0.09177853 2.7457314e-19 1.5336826e-13
5.695e-07 6e-45 -6e-45 0.0013187929 0.0024850809 -7.659154e-18 7.420455e-12 2.2547073e-29
-0.00010818493 6e-45 6e-45 0.006193077 6.441733e-35 0.004232588 6e-45 2.94445e-40
1.4758248e-13 6e-45 0.12541245 0.0027875288 4.204379e-18 6e-45 1.0415322e-10 0.010246366
6e-45 4.8519817e-17 6e-45 0.00013898575 7.375238e-06 3.1571424e-05 6e-45 6e-45
4.5103625e-06 6e-45 0.0018199313 0.19797473 6e-45 2.9839503e-33 1.6471402e-06 6e-45
6e-45 2.6463221e-33 9.700764e-16 6e-45 -0.002085203 6e-45 6e-45 9.047604e-05
6.606088e-06 6e-45 0.0005651584 0.049932957 0.004478786 0.08356829 3.5172056e-05 -0.14656495
4.859036e-07 3.9734968e-10 8.577423e-06 6e-45 1.7890921e-12 -6e-45 6e-45 5.065927e-10
3.5895844e-06 1.942597e-14 0.0009892741 6e-45 2.3751467e-10 6e-45 6e-45 0.0014947728
0.013566767 0.0005986242 -6e-45 6e-45 6e-45 1.122e-42 6e-45 6e-45
6e-45 -0.15720177 6e-45 0.0017943447 -0.6507134 6e-45 8.7596426e-08 6e-45
-0.0073968708 6e-45 -7.231882e-11 1.334213e-27 0.0008979218 6e-45 0.10435484 6e-45
-6e-45 -0.05821155 1.9384483e-16 3.4670183e-14 1.03318916e-10 6e-45 6e-45 -0.02746946
0.05821503 6.1858546e-19 1.0737573e-11 4.0482995e-30 3.255138e-06 6e-45 6e-45 0.035268236
2.59446e-39 -0.17928682 6e-45 2.7041485e-33 2.316128e-18 6e-45 0.012501614 0.22633414
3.6390094e-24 -6e-45 1.145291e-12 0.040176757 6e-45 2.0075866e-05 6e-45 0.05101044
-0.0003785258 0.00059120817 -6e-45 -6e-45 3.8504113e-06 -6e-45 0.4140261 0.14403947
6e-45 2.2640425e-32 8.069164e-06 6e-45 6e-45 2.0078704e-32 1.2075234e-13 6e-45
0.169838 6e-45 6e-45 0.0017052151 1.0457969e-05 6e-45 0.021279704 0.009705358

exp_avg_sq f4 [10, 100]
00000000: b089 1435 631a a03d 775f ef37 b05a 4f3b
00000010: bd80 903c 2464 1439 67e4 da34 da5c 053e
00000020: 5d97 653f 5a5a 9b37 d917 3238 57bb 2236
00000030: 81b9 a738 6573 8e34 b6e2 a335 ba70 a93c
00000040: c2d1 fc36 ebf3 523c 0772 cf35 3201 2339
00000050: 1894 8d3b f1ed 5c36 9e14 293a f559 4b3e
00000060: 1daf 5134 afa4 843b cef5 2139 3f14 fb3c
00000070: 7a40 1e36 6cf0 213c f61c 1035 6e55 2e3e
00000080: 8373 e23c be95 d13e ba1d 1734 b3cc 1d38
00000090: cd89 1c3e 92c8 bb38 1af3 6f40 1fde 7a3b
000000a0: 4366 a536 013c 5f36 19b0 043e c869 8337
000000b0: 8345 f338 a2c5 4d37 17f8 4f39 ca33 5636
000000c0: ec8d 2f3f bd63 8c35 518f 6b38 ea27 203c
000000d0: 2621 dc3c ab4b f039 ee2c dc3c 7f52 2038
000000e0: 52be 6b3d db85 1a3d 6e3b 2f3f d525 883c
000000f0: a681 803d c7fb 0535 2556 bc36 e43f e538
00000100: f9aa 7a3c 9de9 8d35 74a7 0a3a bf87 903a
00000110: c71e 6e3b 5bc5 4038 6308 333d bba0 9c36
00000120: f57d 3d37 0d8d 2538 8c15 9e37 88d0 063e
00000130: 5e10 b63d 0960 073d 99e9 0f39 50c2 d234
00000140: 5bd3 6b34 6de9 8138 81c7 be37 fdf4 e337
00000150: 8e9f 8c33 4b05 ce37 3cc2 b436 2036 e73d
00000160: 805f aa3f ccef d238 7b37 6c3e 73e3 0837
00000170: 1a83 4a39 af85 652c 47c9 b938 7e0c 3e3c
00000180: eed7 813b 92cb 5438 435a 3d3f 084b c534
00000190: 8417 dc37 bf8f 103e 4a12 1d37 3080 4834
000001a0: 6195 fe3a 752e 7538 6228 b434 9e52 903b
000001b0: 77a7 4637 d576 e337 dc5b 8738 e94f d738
000001c0: 2d5c 8e3c d662 3036 c253 0837 afef 903d
000001d0: 6405 9039 63fb d43c 3234 5f33 1935 9f37
000001e0: d0e9 403a 1263 a337 fa64 b03e 1a48 023f
000001f0: 5f43 7b36 8a7e 7f35 52ba 4a39 745f 6a3f
00000200: 014b 9534 a9c2 8b3a dea6 c137 1f3c 743c
00000210: 306a db3a 879e a936 c42e 2533 2086 b938
00000220: 7b41 8b3b 83ba b537 93e4 cf3c e6b0 ef3e
00000230: df53 8437 6013 2737 87be 9a39 50c8 7039
00000240: 7093 3138 247d 1635 7464 c838 f7a9 162b
00000250: 5aaf b53c 4836 0f27 0d95 8138 4e7a 4f37
00000260: 86ac ac3b 15d2 ce36 a5a0 5b3e d8b1 413e
00000270: c0be 033d fe7e 153f c390 5f3a 6d4b 0e3f
00000280: 91e9 6e37 dabb 4933 1063 ee3c 360c c136
00000290: 630d 0f39 b2f7 9337 102c 5337 08e0 9e3b
000002a0: 46ea 0338 5319 ef35 0d70 483d 11a8 0f37
000002b0: 48bd 5f3c 61b2 6238 fac1 2338 4182 cd3d
000002c0: 2d81 b43d d18b 7f3d bca7 e638 9069 1a25
000002d0: e719 7635 c26c bc39 504c 1c38 d468 2538
000002e0: 79e5 8337 002f 053f 18ae c724 ec3c 573e
000002f0: ce4c 0840 00d3 f135 437f 973a f5c8 e335
00000300: 195b fc3c 6a18 0000 73d0 9f3a 6b89 0238
00000310: bb00 543e f955 f137 7cd8 073f 1b7a c535
00000320: 1e34 7836 f305 263f 0f03 243c 5317 553b
00000330: 2a48 7c38 9c08 b036 4058 2c36 6ae2 d53d
00000340: 35eb 4f3e 5c1e e537 8b15 ca38 adef 9036
00000350: 1e44 3439 2368 c634 599d 5b36 efc2 a63d
00000360: 4f74 ee38 ec82 3d3f 0f2c 8335 fa41 f039
00000370: eb1b 6c39 faad b137 a41f 233d 931f 2c40
00000380: c8dc 2b3b c8d2 643b 493a 9239 c6fb b73f
00000390: 647a 3d35 57db a53a a433 1736 9650 b03d
000003a0: 4e54 1c3b 998b 2a3d c774 c633 841b 9739
000003b0: 5800 c03a 2925 ba39 1bee 913f 3733 233e
000003c0: 0696 3638 2c27 cc37 2b1d fa3b e181 e339
000003d0: bf8a f838 303c 0a37 5343 de3a 110d 6833
000003e0: a3fd de3e 3d38 6431 cf84 da38 db19 983d
000003f0: 515a 0239 1c19 8a38 e13f 113f f010 d13c
5.533466e-07 0.07817533 2.8535474e-05 0.0031639747 0.017639512 0.00014151685 4.077185e-07 0.13023701
0.8968409 1.8519513e-05 4.2460717e-05 2.4248927e-06 7.997733e-05 2.6533522e-07 1.2210428e-06 0.020683635
7.5346043e-06 0.012875537 1.5455888e-06 0.00015545337 0.0043206327 3.2921055e-06 0.00064499106 0.19858535
1.9528348e-07 0.004047952 0.00015445726 0.030649303 2.3581365e-06 0.009883981 5.3686324e-07 0.17024776
0.02764297 0.40934557 1.4073785e-07 3.7622358e-05 0.15286942 8.954214e-05 3.7492127 0.0038279367
4.929288e-06 3.3264516e-06 0.12957801 1.5665675e-05 0.000116000905 1.2264967e-05 0.00019833479 3.191863e-06
0.6857593 1.045984e-06 5.616184e-05 0.009775141 0.026871275 0.00045832744 0.026876893 3.8223803e-05
0.05755455 0.03772531 0.6845006 0.016619602 0.062747285 4.9912745e-07 5.612865e-06 0.000109314715
0.015299552 1.0573309e-06 0.00052892347 0.0011026784 0.0036334263 4.596017e-05 0.04370917 4.667874e-06
1.12946045e-05 3.947043e-05 1.8845101e-05 0.13165486 0.088898405 0.03305057 0.00013724565 3.925693e-07
2.1962971e-07 6.194678e-05 2.2742666e-05 2.717459e-05 6.548281e-08 2.4559578e-05 5.38703e-06 0.112896204
1.3310394 0.00010058246 0.23068039 8.159189e-06 0.0001931306 3.2617067e-12 8.858978e-05 0.011599658
0.0039625084 5.073433e-05 0.73965853 3.6748702e-07 2.6236994e-05 0.14117335 9.3621875e-06 1.8673086e-07
0.001942318 5.845582e-05 3.3556995e-07 0.00440438 1.1840711e-05 2.7115844e-05 6.454412e-05 0.00010266883
0.017377937 2.6283574e-06 8.125733e-06 0.07076966 0.00027469837 0.025998777 5.1968705e-08 1.8979003e-05
0.00073590595 1.9477247e-05 0.3445204 0.5089127 3.744113e-06 9.517904e-07 0.00019333631 0.915519
2.7807985e-07 0.0010662872 2.3085096e-05 0.014906912 0.001674002 5.0550475e-06 3.845959e-08 8.84647e-05
0.0042497492 2.1663733e-05 0.025377547 0.4681465 1.5774682e-05 9.958487e-06 0.00029515123 0.00022962806
4.23374e-05 5.606146e-07 9.555454e-05 5.352658e-13 0.02217834 1.9874662e-15 6.178962e-05 1.2366638e-05
0.00526959 6.163735e-06 0.21448 0.18915498 0.032164335 0.583969 0.0008528346 0.5558384
1.4240287e-05 4.696981e-08 0.029099971 5.7532698e-06 0.0001364253 1.7639108e-05 1.2586839e-05 0.004848484
3.1451018e-05 1.7814258e-06 0.048934985 8.562595e-06 0.013655968 5.4048727e-05 3.9042883e-05 0.100346096
0.08813701 0.0623892 0.000109984976 1.3393137e-16 9.1679834e-07 0.00035939185 3.726437e-05 3.9436694e-05
1.5723273e-05 0.5202484 8.659742e-17 0.21019334 2.1296878 1.8017308e-06 0.0011558313 1.6971304e-06
0.030805157 8.758e-42 0.001219286 3.1122396e-05 0.20703404 2.8769473e-05 0.53064704 1.4713181e-06
3.6985216e-06 0.6485283 0.010010495 0.0032515123 6.014869e-05 5.246211e-06 2.5681366e-06 0.10443576
0.20304568 2.7313064e-05 9.636123e-05 4.3194364e-06 0.00017191513 3.6956143e-07 3.2725131e-06 0.081426494
0.000113703885 0.74027896 9.773083e-07 0.00045825524 0.00022517114 2.1181058e-05 0.039825097 2.6894271
0.0026224125 0.0034915674 0.00027890716 1.437371 7.058609e-07 0.0012653869 2.2530812e-06 0.086091205
0.002385396 0.041637037 9.241335e-08 0.00028821465 0.001464854 0.0003550437 1.1400789 0.15937506
4.35319e-05 2.4336936e-05 0.0076328716 0.0004339358 0.00011851405 8.2394545e-06 0.001695732 5.4028593e-08
0.43552884 3.3210334e-09 0.000104197876 0.074268065 0.00012431412 6.58503e-05 0.56738096 0.025520772

exp_avg f4 [10]
00000000: 78f7 e4ba 2a66 b1ba c711 983b 4f13 8fbb
00000010: 742d a43a 008c 14bc f4e0 8fb9 9ef1 223b
00000020: 56ef 5e3b 31b3 a43b
-0.0017468771 -0.0013534476 0.004640791 -0.0043663154 0.0012525753 -0.009066582 -0.0002744269 0.0024863253
0.0034017167 0.005026244

exp_avg_sq f4 [10]
00000000: c7c5 3c39 c225 0d39 45d1 a839 4d61 d439
00000010: 6157 7539 9f14 ae39 c688 4239 c8df 8539
00000020: 4846 d239 393d d739
0.00018002755 0.00013460874 0.00032199375 0.00040508286 0.00023397572 0.0003320323 0.00018552234 0.00025534467
0.00040106685 0.0004105361
