3rd Task/lightning_logs/version_0/checkpoints/epoch=4-step=7500.ckpt (torch, 961330 bytes, 12 tensors)

fc1.weight f4 [100, 784]
0	0x3d108517	0.035283174
1	0xbc2367a0	-0.009973437
2	0x3c16b190	0.009197608
3	0x3cfbb41a	0.030725528
4	0xbc6525ca	-0.01398606
5	0x3d07593d	0.03304409
6	0xbc7c7660	-0.015409082
7	0xbcd52d45	-0.026022563
8	0xbc7e17d4	-0.015508611
9	0x3b0bf460	0.0021355376
10	0x3bccd660	0.0062511414
11	0xbcd30eee	-0.025763955
12	0x3cfcad17	0.030844254
13	0xbb9a4ec0	-0.0047090948
14	0xb705d7f6	-7.9777e-06
15	0x3c4e3ee6	0.012588238
16	0xbc9fd980	-0.019512892
17	0xbcaf1da3	-0.021376437
18	0x3b863898	0.004096102
19	0x3bef1808	0.007296566
20	0xbc907e03	-0.017638212
21	0xbd0dc804	-0.034614578
22	0x3c944f46	0.018104207
23	0xbcddb92c	-0.027065836
24	0xbd101d6b	-0.035184305
25	0xbd115ef7	-0.035490956
26	0xbcf4aa9e	-0.029866513
27	0x3ccfa94c	0.025349282
28	0xbc12e9ea	-0.008966902
29	0xbd01b158	-0.03166327
30	0xbd033dde	-0.032041423
31	0x3cd1a3b6	0.025590759
32	0x3cd8a36f	0.026445119
33	0x3cceda15	0.025250474
34	0x3d65050c	0.055913016
35	0x3dd35a7c	0.10319993
36	0xbd1de239	-0.03854582
37	0x3bcdd7be	0.006281822
38	0xbd63531b	-0.055499177
39	0xbcd922de	-0.026505884
40	0xbb9669ea	-0.0045902627
41	0xb9f4bb79	-0.00046678985
42	0x3cf8df2f	0.03037986
43	0x3d1d8843	0.038460027
44	0x3d6b41eb	0.05743591
45	0x3d8c8943	0.06862118
46	0x3bc704d3	0.006073573
47	0xbcd1ee46	-0.025626313
48	0xbbd8c10e	-0.006614811
49	0xbc5af845	-0.013364856
50	0x3d03a710	0.032141745
51	0x3d65c4e6	0.05609598
52	0x3b065490	0.002049718
53	0x3d008e07	0.031385448
54	0x3c978a30	0.01849851
55	0x3cd7f70a	0.026362915
56	0x3bc15b40	0.0059007704
57	0xbcae0e60	-0.021247089
58	0x3c7cf670	0.015439615
59	0xbc6d571d	-0.014486101
60	0x3cab2221	0.020890297
61	0xbd672ef1	-0.05644125
62	0x3d2eee3e	0.042707674
63	0x3d4dbf78	0.050231427
64	0xbd1794d1	-0.037007157
65	0x3d366511	0.04452998
66	0x3d5dd8a2	0.054161675
67	0x3d8faa6a	0.07014926
68	0x3d472d59	0.04862723
69	0x3d469181	0.048478607
70	0x3cafb769	0.021449761
71	0xbd1263ba	-0.035739638
72	0xbd5ae9fa	-0.053445794
73	0xbd6cd4ee	-0.057820253
74	0xbd32ef73	-0.043685388
75	0x3b7326f3	0.0037102073
76	0xbd62f314	-0.0554076
77	0xbd44948c	-0.047993228
78	0xbd85a403	-0.065254234
79	0xbc80d536	-0.015726667
80	0xbc725052	-0.014789658
81	0xbcd6e0f4	-0.026230313
82	0xbca21d87	-0.01978947
83	0xbcefc5d8	-0.029269144
84	0xbbbed09c	-0.005823208
85	0x3c25cb78	0.0101193115
86	0x3c6657a9	0.014058986
87	0x3d035b17	0.032069292
88	0x3b39a2e1	0.0028325843
89	0x3d1ac836	0.037788592
90	0x3d4fae1b	0.05070315
91	0x3d35e437	0.044407096
92	0x3d9ea7e5	0.07746867
93	0x3dc850f1	0.09781063
94	0x3d994d03	0.07485392
95	0xbce522d4	-0.027970709
96	0x3d233b33	0.03985138
97	0x3dca6394	0.09882274
98	0x3d158f2f	0.036513504
99	0x3cb0538c	0.021524213
100	0xbc07252c	-0.008248609
101	0xbd8ab9ce	-0.06773721
102	0xbdb81681	-0.08988667
103	0xbdb03709	-0.08604247
104	0xbdef57b7	-0.11686652
105	0xbc84c9cc	-0.016209505
106	0x3ca30569	0.01990004
107	0x3cefa9d0	0.029255778
108	0x3c9d975e	0.019237217
109	0xbd79b7ae	-0.060966186
110	0xbd7bc858	-0.06147036
111	0x3c0d3ff4	0.008621205
112	0x3d00d293	0.03145082
113	0x3c529ec7	0.012855238
114	0xbd03be36	-0.03216382
115	0x3ce974f9	0.02849816
116	0xbd0d6a98	-0.034525484
117	0x3dbc56bc	0.09196231
118	0xbccaa38e	-0.024736192
119	0xbcebf7d4	-0.028804697
120	0xbd4016d5	-0.046896774
121	0xbbc66bdd	-0.006055339
122	0xbd1bff7a	-0.03808544
123	0xbcd6716b	-0.026177129
124	0xbd3714ca	-0.04469756
125	0x3b812a11	0.0039417823
126	0x3c4fabac	0.012675207
127	0x3c0358f4	0.008016814
128	0x3d0bb590	0.0341087
129	0xbd49a7b6	-0.049232207
130	0xbcb1e1d9	-0.021714138
131	0xbd3d99dc	-0.04628931
132	0xbd18f0eb	-0.037339132
133	0xbd4a814c	-0.049439713
134	0xbbc84272	-0.0061114365
135	0xbd0581c1	-0.032594446
136	0x3c8afce4	0.01696629
137	0x3d5ecec4	0.054396406
138	0x3c04b7c5	0.008100455
139	0xbd61bb1f	-0.055110093
140	0xbce6c653	-0.02817074
141	0x3cc943a8	0.024568394
142	0x3cfa25d2	0.030535612
143	0x3cf7f930	0.030270189
144	0xbd5c330c	-0.05375962
145	0xbc8e6b23	-0.017385071
146	0xbcba9ac9	-0.022778885
147	0xbd1e58c8	-0.038658887
148	0x3d30469a	0.04303608
149	0x3d1a4de8	0.037671953
150	0x3d12a9ce	0.03580647
151	0x3d3154bf	0.04329371
152	0x3bdaf623	0.006682174
153	0xba45efce	-0.00075506873
154	0xbd45ca3b	-0.048288565
155	0xbcb2dac4	-0.021832831
156	0x3c623b19	0.013808035
157	0xbd1e35c3	-0.03862549
158	0x3c76527a	0.015034312
159	0x3c6dbb6b	0.014510016
160	0x3cd011a9	0.025399046
161	0xbd29cfaa	-0.04145781
162	0x3cc7764c	0.0243484
163	0x3da62e24	0.081142694
164	0x3d423fec	0.047424242
165	0x3ce00aa4	0.027348824
166	0x3bdb416f	0.00669115
167	0x3c90d789	0.0176809
168	0xbc62ac46	-0.0138350185
169	0xbcaa9e8f	-0.02082756
170	0x3d3a4e02	0.04548455
171	0xbc4092b4	-0.011753727
172	0xbdac0f21	-0.08401323
173	0xbd078dbe	-0.03309416
174	0xbdab4f0e	-0.08364688
175	0xbd2025f7	-0.039098706
176	0x3c58c82f	0.013231321
177	0xbc517b8b	-0.012785803
178	0xbd24439c	-0.04010354
179	0xbccdf7d2	-0.025142584
180	0x3c127104	0.008938078
181	0x3c82ac72	0.015951369
182	0xbd339012	-0.043838568
183	0xbc50a2cd	-0.012734127
184	0x3c74bf9d	0.014938262
185	0xbb242945	-0.0025049013
186	0xbd1ba47d	-0.037998665
187	0xbd5751ba	-0.052568175
188	0xbcf5a240	-0.029984593
189	0xbcc1b8af	-0.023647634
190	0xbd2b97ba	-0.041892745
191	0xbd01f88f	-0.031731185
192	0x3da02a45	0.07820562
193	0x3cfa6dd6	0.030569952
194	0x3da52390	0.08063424
195	0x3d072028	0.03298965
196	0x3ceb73c2	0.028741721
197	0x3a7d749a	0.0009668559
198	0xbca55bd6	-0.020185392
199	0xbdc6a633	-0.09699669
200	0xbc91dcab	-0.017805418
201	0xbd2c2938	-0.042031497
202	0xbd609057	-0.054825153
203	0xbc1034f6	-0.008801689
204	0xbd22ccce	-0.0397461
205	0xbc60e592	-0.013726609
206	0x3bd22190	0.0064126924
207	0x3c811d9c	0.01576119
208	0x3cb8929e	0.02253085
209	0xbb8988ef	-0.004197232
210	0x3c24a7e6	0.010049796
211	0xbc5f265b	-0.0136199845
212	0x39e37fea	0.00043392117
213	0xbb3a75f8	-0.0028451663
214	0x3cf31914	0.029675044
215	0xbc5fb99b	-0.013655092
216	0xbb325e3d	-0.0027216815
217	0x3c86da35	0.016461471
218	0x3cab9289	0.020943897
219	0xbbf13265	-0.007360744
220	0x3d126f78	0.035750836
221	0x3cbadc2a	0.02281006
222	0x3d4734d0	0.04863435
223	0x3c9af850	0.018917233
224	0x3cd6ef3c	0.026237123
225	0xbcccd73e	-0.02500498
226	0xbdea76f2	-0.11448468
227	0xbddea59e	-0.10871433
228	0x3d329c69	0.043606196
229	0x3cae7530	0.021296114
230	0x3cc78828	0.024356917
231	0xbc67c935	-0.014147093
232	0xbdacbee2	-0.084348455
233	0xbd214cd9	-0.03937993
234	0x3be2d21d	0.00692202
235	0x3d1d7822	0.038444646
236	0xbd279fb4	-0.04092379
237	0xbc9e54b4	-0.019327499
238	0x3992a09e	0.0002796696
239	0xbc5b5a78	-0.013388269
240	0xbd1ddf82	-0.03854323
241	0xbcdc7608	-0.02691175
242	0xbcec0684	-0.0288117
243	0xbbd36c78	-0.0064521395
244	0xbc353270	-0.0110593885
245	0x3cc573c8	0.02410306
246	0x3d5756c4	0.05257298
247	0x3d2699fb	0.04067419
248	0x3d20cb35	0.039256293
249	0x3d418d89	0.04725412
250	0x3dbb8aac	0.09157309
251	0x3c32cb6e	0.010912759
252	0x3cc23cb6	0.02371059
253	0xbdf1bcda	-0.11803599
254	0xbd43703c	-0.047714457
255	0xbdafc57e	-0.085825905

fc1.bias f4 [100]
0	0xbd9fdc6b	-0.07805713
1	0x3a8d149c	0.0010763588
2	0xbcd63467	-0.026148034
3	0xbd0643cc	-0.0327795
4	0xbdd74b3d	-0.105123974
5	0x3c30fc81	0.010802389
6	0xbd1e42fe	-0.038638107
7	0x3d4f8cb4	0.050671294
8	0xbe1e728c	-0.15473384
9	0xbe1c433b	-0.15260021
10	0xbdb53486	-0.08847909
11	0xbc4ca610	-0.012490764
12	0xbd4bac05	-0.049724597
13	0xbde00e38	-0.10940212
14	0xbdacf062	-0.08444287
15	0xbd269973	-0.040673684
16	0xbd6f5131	-0.05842704
17	0xbd77dd91	-0.060514037
18	0x3c48df19	0.012260222
19	0xbded0d03	-0.115747474
20	0xbd396d4f	-0.04527026
21	0xbe197c87	-0.1498891
22	0x3ce8ca23	0.028416699
23	0x3dbf0133	0.093264006
24	0xbd1a6f18	-0.037703604
25	0xbc39d248	-0.011341639
26	0xbd3069ab	-0.043069523
27	0x3cfa8495	0.030580798
28	0xbddf33b4	-0.108985335
29	0xbd3ab1f6	-0.045579873
30	0xbde8a4bd	-0.11359546
31	0xbdd7f744	-0.10545209
32	0xbd407325	-0.04698481
33	0x3c7a67bd	0.015283522
34	0xbd9ff510	-0.07810414
35	0xbd814c18	-0.06313342
36	0xbcb36e62	-0.02190322
37	0xbdb4f3ed	-0.08835588
38	0xbdff227f	-0.124577515
39	0xbdab94e7	-0.0837801
40	0xbe174dee	-0.14775822
41	0xbd45bd47	-0.048276212
42	0xbd99aa51	-0.075031884
43	0xbd963b3f	-0.07335519
44	0xbda4fe8f	-0.08056366
45	0x3c04acf9	0.0080978805
46	0xbd58b6ea	-0.052908815
47	0xbe4638eb	-0.1935765
48	0xbc538422	-0.012909921
49	0xbdd17b9e	-0.10228656
50	0xbdb2f861	-0.08738781
51	0x3a2f58a7	0.00066889304
52	0xbc15f56a	-0.00915275
53	0xbda40877	-0.08009427
54	0xbda87447	-0.08225303
55	0x3c35c371	0.01109396
56	0xbd76f409	-0.060291324
57	0xbd73cc47	-0.059520986
58	0x3e116519	0.14198722
59	0xbdbcaac0	-0.092122555
60	0xbcb6494f	-0.022251753
61	0x3c4e1d26	0.012580192
62	0xbd35b7fd	-0.044364918
63	0xbdde3884	-0.10850623
64	0xbb871a86	-0.004123035
65	0xbc186bb9	-0.009303027
66	0xbdc96dea	-0.098354176
67	0xbe0d7268	-0.13813174
68	0xbdc0d2d2	-0.09415211
69	0xbd589954	-0.0528806
70	0xbe174061	-0.14770652
71	0xbda2fc1b	-0.079582416
72	0xbd0f0039	-0.03491232
73	0xbdb81f3c	-0.089903325
74	0xbce42a6e	-0.027852263
75	0xbd645a50	-0.05575019
76	0xbd6344a5	-0.055485386
77	0x3d20a810	0.039222777
78	0xbdc1a2bf	-0.094548695
79	0x3d1d4e16	0.038404547
80	0xbe20d7f1	-0.15707375
81	0xbd911074	-0.07083216
82	0xbd8a003b	-0.06738325
83	0xbcbc8e9c	-0.02301722
84	0xbcb7bfc2	-0.022430304
85	0xbe0da40a	-0.13832107
86	0xbe01e91a	-0.12686577
87	0xbd8f9a76	-0.07011883
88	0xbd58bf4e	-0.052916817
89	0xbcec5034	-0.028846838
90	0xbddc3b97	-0.10753553
91	0xbd344a24	-0.04401602
92	0xbdc42395	-0.09577099
93	0xbd2c9d5e	-0.042142265
94	0xbd3f705f	-0.046738025
95	0xbd1f6320	-0.038912892
96	0xbda53082	-0.08065893
97	0x3c629128	0.013828553
98	0xbde6fb22	-0.112783685
99	0xbdc24d19	-0.094873615

fc2.weight f4 [10, 100]
0	0x3c27a5e3	0.010232422
1	0x3cefe096	0.029281896
2	0xbb6dcda4	-0.0036285901
3	0x3d01f002	0.03172303
4	0xbcf298d5	-0.029613892
5	0x3cbb6dca	0.0228795
6	0xbc7edbb8	-0.015555315
7	0xbcf28ae9	-0.029607253
8	0x3cb2bb99	0.02181797
9	0xbbdd17f7	-0.0067472416
10	0xbb54024c	-0.0032350002
11	0x3a9706d0	0.0011522416
12	0x3cdf8ee8	0.027289823
13	0xbc0a9dc0	-0.008460462
14	0x3c3a7e72	0.011382686
15	0xbd365d13	-0.044522356
16	0xbd4c6688	-0.04990247
17	0xbcb7d1a1	-0.022438826
18	0xbc073426	-0.008252179
19	0x3c27e42f	0.010247274
20	0x3d1a864f	0.037725743
21	0x3c5136a0	0.012769371
22	0xbc2966d4	-0.010339458
23	0xbb9d7d1f	-0.0048061754
24	0x3d5c5013	0.053787302
25	0x3ca02bcc	0.019552134
26	0x3c9a493e	0.018833753
27	0xbc0c50ca	-0.0085641835
28	0xbb3c1b6a	-0.0028702863
29	0x3c99890e	0.01874211
30	0x3aaee347	0.001334288
31	0x3aa2fed6	0.0012435566
32	0xbbb40275	-0.005493457
33	0x3c6b66d9	0.0143677825
34	0x3bc3cc74	0.0059753004
35	0x3bb183fc	0.005417345
36	0xbbaedd3c	-0.005336432
37	0xbb2e8997	-0.0026632303
38	0xbcf40674	-0.029788233
39	0x3d04e699	0.032446478
40	0x3bb4310d	0.0054990114
41	0x3ceb158a	0.028696794
42	0x3bb72bdf	0.0055899466
43	0xbc7e7857	-0.015531621
44	0x3d355b37	0.044276442
45	0x3af08b84	0.0018352126
46	0xbd204348	-0.039126664
47	0x3cbb19da	0.022839475
48	0xbd68850e	-0.056767516
49	0xbced7919	-0.028988408
50	0x3c488c3a	0.012240464
51	0x3c6c22c8	0.014412589
52	0x3b424421	0.0029642659
53	0x3d31a33e	0.04336857
54	0xbc833377	-0.016015751
55	0xbb2931eb	-0.0025817107
56	0xbd00f6a2	-0.031485207
57	0x3d0f9f2e	0.035063915
58	0x3c47e916	0.012201568
59	0x3b38e1d9	0.0028210788
60	0xbcfb14cc	-0.030649565
61	0x3c8509d9	0.016240047
62	0x3d0d61c1	0.034517054
63	0x3b5b19e3	0.0033432178
64	0xbc024481	-0.007950903
65	0x3d4f057b	0.050542336
66	0xbc079d47	-0.008277244
67	0x3c4edc53	0.012625772
68	0x3be0c171	0.0068589975
69	0xbc6f4fb2	-0.014606403
70	0x3cb9b425	0.022668907
71	0x3bf970b0	0.0076123103
72	0x3bce2684	0.0062912125
73	0xbca13acc	-0.019681357
74	0xbc38cc63	-0.011279198
75	0xbcc73fb4	-0.024322368
76	0x3d2d0d52	0.04224903
77	0x3bd46adb	0.0064824647
78	0xbd142071	-0.03616375
79	0x3d2b0830	0.041755855
80	0xbcefbe74	-0.02926562
81	0x3c8a4f4d	0.016883517
82	0x3c78b731	0.015180395
83	0xbc25db4a	-0.010123083
84	0xbd5e6113	-0.054291796
85	0x3c10524e	0.0088086855
86	0x3b646f59	0.0034856407
87	0x3c94591c	0.018108897
88	0x3c677905	0.014127974
89	0x3cc43ab2	0.02395377
90	0xbc867098	-0.01641111
91	0xbb84a906	-0.0040484695
92	0x3cef814e	0.029236462
93	0x3c89b5b7	0.016810281
94	0xbc360506	-0.011109596
95	0xbce62357	-0.028093023
96	0xbb1118fd	-0.0022140138
97	0xbc73f2ed	-0.014889461
98	0x3c84c03b	0.016204944
99	0x3d21c9db	0.039499145
100	0x3c061fab	0.008186261
101	0x3d51074e	0.051032357
102	0xbcae4088	-0.021271005
103	0x3a85b274	0.0010200278
104	0xbc48cea3	-0.012256297
105	0x3ca1763e	0.019709703
106	0xbbe2d4eb	-0.0069223545
107	0xbc702a93	-0.014658588
108	0x3d73eaa7	0.059549954
109	0x3c29b62d	0.0103583755
110	0x3cb57be9	0.022153812
111	0x3c9563df	0.018236099
112	0x3cc86f56	0.024467152
113	0x3cebf80c	0.028804801
114	0xbd136619	-0.03598604
115	0x3aea9df9	0.0017899863
116	0xbc1803af	-0.009278222
117	0x3bdfcb9b	0.0068296916
118	0x3a98279e	0.0011608487
119	0x3d1209df	0.035653945
120	0x3c6cab1a	0.014445091
121	0xba40a8d1	-0.00073493744
122	0xbd10b4db	-0.035328727
123	0xbc28f0e0	-0.010311335
124	0x3cb9967e	0.022654768
125	0x3d07dc72	0.033169217
126	0xbc2ded5b	-0.010615672
127	0x3aaa3bfb	0.0012987846
128	0x3c90411c	0.017609172
129	0x3c04fdc9	0.008117148
130	0x3d14e8e2	0.036354907
131	0x3c89d988	0.01682736
132	0xbc4417c3	-0.011968556
133	0xbd01d2c8	-0.031695157
134	0x3c97c0cc	0.01852455
135	0xbaaa9ce0	-0.0013016723
136	0x39006d2b	0.000122477
137	0x3bd60d76	0.0065323664
138	0xbc33564c	-0.010945868
139	0xbb85f437	-0.0040879506
140	0xbd0aba62	-0.033869155
141	0xbc610051	-0.013732986
142	0x3d5eb8f5	0.054375608
143	0x3b300b58	0.002686223
144	0xbba55867	-0.005045939
145	0xbcbf5e36	-0.023360353
146	0xba8a8790	-0.0010568965
147	0xbc0cf97a	-0.008604402
148	0xbcc2327d	-0.023705715
149	0x3c0c96d7	0.008580885
150	0xbc659067	-0.014011479
151	0x3b1f91ab	0.00243483
152	0x3d07df9a	0.033172227
153	0x3c547b95	0.012968917
154	0xbbf23496	-0.0073915226
155	0xbbebd467	-0.007196951
156	0xbc6cb632	-0.014447736
157	0x3cc71f41	0.024306895
158	0x3cde084b	0.027103564
159	0xb9f99ab3	-0.0004760824
160	0xbbf4d617	-0.0074718106
161	0x3cc9ec70	0.024648875
162	0x3c291a16	0.010321161
163	0x3c7d7903	0.015470746
164	0x3cdecd57	0.027197523
165	0x3ccb436f	0.024812428
166	0x3d17ceba	0.037062384
167	0xbab2b40e	-0.0013633983
168	0xbbbd694c	-0.0057803746
169	0xbbe02cf5	-0.006841297
170	0x3c96a8f2	0.018391106
171	0x3b733378	0.0037109535
172	0x3c968930	0.018375963
173	0x3d03deed	0.03219502
174	0xbc1c092b	-0.00952367
175	0x3cd591a4	0.026070423
176	0x3c5f8a93	0.0136438785
177	0xbaf4a772	-0.0018665625
178	0xbcbe6f84	-0.023246534
179	0x3c204a7a	0.009783382
180	0xbcae5390	-0.02128008
181	0x3d040c4c	0.03223829
182	0x3d240487	0.04004338
183	0xbbbe6832	-0.005810761
184	0xbce14eba	-0.02750336
185	0x3d551529	0.052022133
186	0x3c8ec5cf	0.017428307
187	0x3d5b5e67	0.053556826
188	0xbce01995	-0.027355948
189	0xbb9382bb	-0.0045016683
190	0x3c06c7e5	0.0082263695
191	0xbd1aae56	-0.037763916
192	0x3d5a81c8	0.053346425
193	0x3d1da5ce	0.0384882
194	0xbbf98bbb	-0.007615534
195	0xbc30c2e3	-0.010788652
196	0xbccf1417	-0.025278134
197	0xbc966044	-0.01835645
198	0x3c878b68	0.016545966
199	0x3d7a6842	0.061134584
200	0x3d0979f4	0.03356357
201	0x3d08ab53	0.033366513
202	0x3cba355f	0.022730527
203	0xbc8c9360	-0.017160118
204	0xbccded85	-0.025137672
205	0x3adfd25d	0.0017076243
206	0xbc5e3225	-0.01356176
207	0xbc7da624	-0.015481506
208	0x3cb3fee0	0.02197212
209	0xbcbec5c2	-0.023287658
210	0xb8974e0c	-7.2147785e-05
211	0x3af5e9c5	0.0018761685
212	0x3b576d25	0.0032871452
213	0x3add04b0	0.0016862359
214	0xbca4c215	-0.020112077
215	0xbc6f6558	-0.014611565
216	0xbcaf3151	-0.02138582
217	0x3a84d3d4	0.001013393
218	0xbc2250bd	-0.009906945
219	0x3c5e077f	0.013551592
220	0x3d73eb1f	0.0595504
221	0xbc86948a	-0.01642825
222	0x3c54ff15	0.013000269
223	0xba882dc0	-0.0010389611
224	0x3ce67034	0.028129674
225	0x3bbefcdf	0.0058284844
226	0x3bcb65fd	0.0062072263
227	0x3be6d645	0.007044586
228	0x3b37dd69	0.0028055555
229	0xbaf1d2ae	-0.0018449628
230	0x3baa09ec	0.005189171
231	0x3b10ff7e	0.0022124941
232	0xbc02cd89	-0.007983574
233	0xbd29bfa8	-0.041442543
234	0x3cf723fd	0.030168528
235	0x3d2fd617	0.04292878
236	0xbb1518cc	-0.0022750376
237	0xbc407d20	-0.011748582
238	0x3c28cc06	0.010302549
239	0xbbc01a5e	-0.005862518
240	0xbd236fd4	-0.03990157
241	0x3b6e4cf9	0.0036361797
242	0x3c3e1f94	0.0116042085
243	0xbcbafbb2	-0.022825096
244	0x3d4c914c	0.049943253
245	0xbbd67a65	-0.0065453523
246	0xbb401ffa	-0.0029315935
247	0x3c96d3a8	0.018411472
248	0xbd33ccda	-0.043896534
249	0xbd005120	-0.031327367
250	0xbb8e48c3	-0.00434217
251	0x3d345f61	0.044036273
252	0x3c525134	0.012836743
253	0x3c3b8c24	0.011446986
254	0xbb97a22a	-0.0046274858
255	0xbc906e3b	-0.017630687

fc2.bias f4 [10]
0	0xbe5bdbc4	-0.21470553
1	0xbd6cef9f	-0.057845708
2	0x3d11765f	0.035513278
3	0xbe30217c	-0.17200273
4	0x3d922712	0.07136358
5	0x3ec28aed	0.37996617
6	0xbe8a4a14	-0.27009642
7	0x3dd026aa	0.101636246
8	0xbcbd4fdf	-0.023109375
9	0x3e3a239b	0.18177645

exp_avg f4 [100, 784]
0	0x00000000	0.0
1	0x00000000	0.0
2	0x00000000	0.0
3	0x00000000	0.0
4	0x00000000	0.0
5	0x00000000	0.0
6	0x00000000	0.0
7	0x00000000	0.0
8	0x00000000	0.0
9	0x00000000	0.0
10	0x00000000	0.0
11	0x00000000	0.0
12	0x80000004	-6e-45
13	0x80000004	-6e-45
14	0x80000004	-6e-45
15	0x80000004	-6e-45
16	0x00000000	0.0
17	0x00000000	0.0
18	0x00000000	0.0
19	0x00000000	0.0
20	0x00000000	0.0
21	0x00000000	0.0
22	0x00000000	0.0
23	0x00000000	0.0
24	0x00000000	0.0
25	0x00000000	0.0
26	0x00000000	0.0
27	0x00000000	0.0
28	0x00000000	0.0
29	0x00000000	0.0
30	0x00000000	0.0
31	0x00000000	0.0
32	0x00000004	6e-45
33	0x00000004	6e-45
34	0xa77595c6	-3.4081772e-15
35	0xa7af925f	-4.8730953e-15
36	0x15929f75	5.922051e-26
37	0x313daec4	2.7602463e-09
38	0x334f026d	4.819815e-08
39	0x3219348a	8.917718e-09
40	0xa395d498	-1.624465e-17
41	0x226febc8	3.2515361e-18
42	0xa30727ad	-7.326766e-18
43	0xa36a7054	-1.2708952e-17
44	0xb3279792	-3.902057e-08
45	0xb285b272	-1.5564385e-08
46	0xa68fab1a	-9.968995e-16
47	0xa5a60b62	-2.8804123e-16
48	0x80000004	-6e-45
49	0x80000004	-6e-45
50	0x80000004	-6e-45
51	0x00000004	6e-45
52	0x00000000	0.0
53	0x00000000	0.0
54	0x00000000	0.0
55	0x00000000	0.0
56	0x00000000	0.0
57	0x00000000	0.0
58	0x80000004	-6e-45
59	0x000004c3	1.708e-42
60	0x000001a3	5.87e-43
61	0x87cab9de	-3.0502825e-34
62	0xa6ca8001	-1.4051261e-15
63	0xa8361708	-1.0108024e-14
64	0x314c454e	2.9725302e-09
65	0x335b4814	5.1055466e-08
66	0x349b6014	2.8940906e-07
67	0x34cc248e	3.8024558e-07
68	0x350651ad	5.0037744e-07
69	0xb7ce2b23	-2.45772e-05
70	0xb8e5c865	-0.00010956897
71	0xb916837f	-0.00014354101
72	0xb8f326fd	-0.00011594405
73	0x37502d30	1.2408287e-05
74	0x369d3274	4.684838e-06
75	0x3221f28a	9.42658e-09
76	0xadd76236	-2.4486285e-11
77	0x2a30bd10	1.5697534e-13
78	0xa8d280d9	-2.3370562e-14
79	0x0c222289	1.2490419e-31
80	0x0ac709ab	1.916664e-32
81	0x80000004	-6e-45
82	0x00000000	0.0
83	0x00000000	0.0
84	0x00000000	0.0
85	0x00000000	0.0
86	0x80000004	-6e-45
87	0x8c20d41f	-1.2389785e-31
88	0x18af2113	4.5269836e-24
89	0x3553b4a8	7.8866515e-07
90	0x36854840	3.97212e-06
91	0x3694bda3	4.4328203e-06
92	0x3619842f	2.2875718e-06
93	0xb93effab	-0.00018215056
94	0xb9c22f0f	-0.00037037625
95	0xbb3fb4b2	-0.002925199
96	0xbc6fea32	-0.014643239
97	0xbcd92b59	-0.026509928
98	0xbccfac7d	-0.025350804
99	0xbc1967c1	-0.009363116
100	0xb905f8a3	-0.00012776493
101	0xb89b5abd	-7.407877e-05
102	0x38cc18a9	9.732071e-05
103	0x3776d7a8	1.4712954e-05
104	0xb82887a7	-4.0180657e-05
105	0xb70312d6	-7.812594e-06
106	0xb688c1b3	-4.0756654e-06
107	0xb5fee979	-1.8992424e-06
108	0x317516e7	3.566521e-09
109	0x2d1eaacd	9.019186e-12
110	0x0a95fb17	1.4442628e-32
111	0x00000000	0.0
112	0x00000000	0.0
113	0x022567c6	1.2152067e-37
114	0x98768f14	-3.186699e-24
115	0xb3bbee15	-8.751173e-08
116	0xb34a1a93	-4.705596e-08
117	0xb8e2745b	-0.00010798193
118	0xba577de0	-0.0008220356
119	0xba5b3a3e	-0.0008362866
120	0xba8de0b2	-0.0010824411
121	0xbaaa1d82	-0.0012978765
122	0xbc2a5525	-0.010396277
123	0xbced1d8f	-0.028944759
124	0xbcf92726	-0.030414175
125	0xbcfb735a	-0.030694652
126	0xbd17a368	-0.03702107
127	0xbcf24ba3	-0.029577082
128	0xbc2deec1	-0.010616005
129	0xbc120fa6	-0.008914864
130	0xba675214	-0.0008824181
131	0xb83a8e9b	-4.4478667e-05
132	0xb88f517c	-6.833949e-05
133	0xb8204e91	-3.8220143e-05
134	0xb74360b3	-1.164542e-05
135	0xb66c115b	-3.5176843e-06
136	0xb603f148	-1.9660965e-06
137	0xb1d171b5	-6.0956276e-09
138	0x2990d779	6.432263e-14
139	0x8ce47c7a	-3.5203879e-31
140	0x00000000	0.0
141	0x00000000	0.0
142	0x97a45f5e	-1.0622326e-24
143	0xb4f9983b	-4.6490626e-07
144	0xb71831f5	-9.0715375e-06
145	0xba945a06	-0.0011318333
146	0xbaac0970	-0.0013125371
147	0xbaa33339	-0.0012451179
148	0xba7c2650	-0.0009618746
149	0xbb656065	-0.0035000083
150	0xbcdf9acc	-0.027295493
151	0xbcc0ec77	-0.023550255
152	0xbc61d361	-0.013783307
153	0xbc789cf3	-0.015174138
154	0xbd1b3acf	-0.03789788
155	0xbd185ea2	-0.037199624
156	0xbc4346a0	-0.011918694
157	0xbc2512b6	-0.010075262
158	0xbb82d13a	-0.003992227
159	0x3a1905ba	0.000583734
160	0x39e34447	0.00043347685
161	0x393abc81	0.00017808565
162	0xb867b11f	-5.523965e-05
163	0x35d95eba	1.6195329e-06
164	0xb1c9c728	-5.8725114e-09
165	0xb4105a61	-1.3443925e-07
166	0xb00b9077	-5.07732e-10
167	0x14b1390f	1.7894938e-26
168	0x00000000	0.0
169	0x00000004	6e-45
170	0x2b13d135	5.2515224e-13
171	0xb4822df3	-2.424782e-07
172	0xb81b6f38	-3.705846e-05
173	0xb9a1eefa	-0.00030886364
174	0xb9f1841f	-0.0004606554
175	0xb986a3e6	-0.00025680586
176	0xb8a1aa07	-7.708748e-05
177	0xbb88d44d	-0.004175699
178	0xbcecc6ec	-0.028903447
179	0xbc33bf32	-0.0109708775
180	0xbc2cd7d9	-0.010549509
181	0xbba75f16	-0.0051077707
182	0xbce53148	-0.0279776
183	0xbcff1b5c	-0.031140976
184	0xbc32fb1c	-0.010924127
185	0xbc287f56	-0.0102842655
186	0xbbc46ad6	-0.005994181
187	0x3971606d	0.00023019472
188	0xb97f8fda	-0.00024372284
189	0xb933bd11	-0.00017141203
190	0xb969bc80	-0.00022290833
191	0xb5a44328	-1.2238497e-06
192	0x38b26e6f	8.508271e-05
193	0x37ac77c9	2.0559777e-05
194	0xb161d8f1	-3.2865126e-09
195	0x98f9f2f2	-6.4610303e-24
196	0x80000004	-6e-45
197	0x1c40298d	6.3581174e-22
198	0x2b22fea4	5.7907346e-13
199	0x2ca82584	4.7790123e-12
200	0xb8687d34	-5.5429715e-05
201	0xb90fcc42	-0.00013713635
202	0xb999c154	-0.00029326475
203	0xb982d5cd	-0.00024954826
204	0xb9a28161	-0.00030995443
205	0xbbc3a0fb	-0.005970118
206	0xbc3b09c7	-0.011415905
207	0xbc1a59e2	-0.009420844
208	0xbb3a0dbd	-0.0028389536
209	0xba0921b3	-0.0005231157
210	0xbcab6579	-0.02092241
211	0xbcf783e9	-0.030214267
212	0xbcbfd7d1	-0.023418339
213	0xbc2f8cea	-0.010714749
214	0xbbdb6e29	-0.0066964817
215	0xb9eb63bd	-0.00044897004
216	0x3a971bb2	0.001152864
217	0x38530d10	5.0318486e-05
218	0xba78ad38	-0.0009486261
219	0xba4d1aad	-0.00078241044
220	0xb9e587ad	-0.0004377937
221	0xb72ac5c6	-1.0178837e-05
222	0xb454d645	-1.982199e-07
223	0x26083953	4.7262167e-16
224	0x80000004	-6e-45
225	0x1aa82460	6.954194e-23
226	0x2829de06	9.429528e-15
227	0xb6a3c70a	-4.8809497e-06
228	0xb85caa28	-5.2610558e-05
229	0xb98e7dcb	-0.00027178074
230	0xba08e508	-0.00052221166
231	0xb9c702ce	-0.00037958327
232	0xba6da885	-0.0009065944
233	0xbc0d104a	-0.008609841
234	0xbc0799e8	-0.00827644
235	0xbaf401cd	-0.0018616259
236	0x3a5b7c85	0.0008372742
237	0x3a885a04	0.0010402803
238	0xbccdd0f0	-0.025124043
239	0xbcea5678	-0.028605685
240	0xbcd5702e	-0.026054468
241	0xbc3d1841	-0.011541427
242	0xbb6b360c	-0.0035890369
243	0x396c4c69	0.00022535179
244	0x3ab13a3a	0.0013521381
245	0xb9f7dce3	-0.00047276085
246	0xbafdba8a	-0.0019357961
247	0xbaa6e656	-0.001273344
248	0xb9cb0113	-0.00038719978
249	0xb99a5cf5	-0.00029442427
250	0xb4c8a63f	-3.7373863e-07
251	0x164de106	1.6630773e-25
252	0x80000004	-6e-45
253	0x1485a664	1.3495198e-26
254	0x27af34e4	4.86296e-15
255	0xb914ab42	-0.00014178178

exp_avg_sq f4 [100, 784]
0	0x00000000	0.0
1	0x00000000	0.0
2	0x00000000	0.0
3	0x00000000	0.0
4	0x00000000	0.0
5	0x00000000	0.0
6	0x00000000	0.0
7	0x00000000	0.0
8	0x00000000	0.0
9	0x00000000	0.0
10	0x00000000	0.0
11	0x00000000	0.0
12	0x2d1b0d0a	8.813625e-12
13	0x2e4a721e	4.603084e-11
14	0x2c862347	3.8124256e-12
15	0x27ee77b3	6.618805e-15
16	0x00000000	0.0
17	0x00000000	0.0
18	0x00000000	0.0
19	0x00000000	0.0
20	0x00000000	0.0
21	0x00000000	0.0
22	0x00000000	0.0
23	0x00000000	0.0
24	0x00000000	0.0
25	0x00000000	0.0
26	0x00000000	0.0
27	0x00000000	0.0
28	0x00000000	0.0
29	0x00000000	0.0
30	0x00000000	0.0
31	0x00000000	0.0
32	0x1f228fbe	3.4423735e-20
33	0x235b6614	1.189363e-17
34	0x334e90fc	4.8094975e-08
35	0x33d35ff3	9.842906e-08
36	0x324cc372	1.1918802e-08
37	0x31b71656	5.3285403e-09
38	0x31a52d96	4.8073145e-09
39	0x3374474b	5.6875518e-08
40	0x35c39c0b	1.4574047e-06
41	0x34c328fb	3.6351398e-07
42	0x3353637b	4.9217743e-08
43	0x34a36bd0	3.043956e-07
44	0x35869988	1.0028461e-06
45	0x33ec95b9	1.1016841e-07
46	0x32984cf3	1.7730121e-08
47	0x32203ef3	9.327539e-09
48	0x30bc16e7	1.368531e-09
49	0x2b194d1b	5.4463525e-13
50	0x24a11de2	6.9873243e-17
51	0x251cfdf1	1.3616882e-16
52	0x00000000	0.0
53	0x00000000	0.0
54	0x00000000	0.0
55	0x00000000	0.0
56	0x00000000	0.0
57	0x00000000	0.0
58	0x1f138d9d	3.12456e-20
59	0x30b086ab	1.284396e-09
60	0x2f27ec76	1.527257e-10
61	0x274ea023	2.8675053e-15
62	0x331dd775	3.6750368e-08
63	0x349740af	2.8173005e-07
64	0x344e41e2	1.9209213e-07
65	0x35243d86	6.118429e-07
66	0x35c9d75d	1.5038346e-06
67	0x3689705f	4.096e-06
68	0x37c6a19c	2.3678695e-05
69	0x3836942a	4.353017e-05
70	0x37af34f2	2.088628e-05
71	0x385187ab	4.9955834e-05
72	0x37e6b13b	2.7500666e-05
73	0x3710ca41	8.63016e-06
74	0x377a82c7	1.493161e-05
75	0x387cffb6	6.031963e-05
76	0x3687650f	4.0350783e-06
77	0x359dc972	1.175604e-06
78	0x35822ff5	9.699712e-07
79	0x3477faa2	2.3094847e-07
80	0x3372344b	5.6392576e-08
81	0x2f387bd4	1.6778695e-10
82	0x00000000	0.0
83	0x00000000	0.0
84	0x00000000	0.0
85	0x00000000	0.0
86	0x203312b7	1.5168082e-19
87	0x323a683f	1.0850328e-08
88	0x30a48fe9	1.1973472e-09
89	0x34cc86de	3.809609e-07
90	0x3535aa4e	6.767558e-07
91	0x375ee050	1.3284458e-05
92	0x37a6cf9f	1.9885423e-05
93	0x3827393b	3.9869203e-05
94	0x38b6aa01	8.710102e-05
95	0x3901a819	0.0001236502
96	0x397a56b0	0.00023874152
97	0x39b88a1f	0.00035198123
98	0x39cf92b1	0.0003959141
99	0x3a036145	0.00050117477
100	0x39e7756d	0.00044147242
101	0x3976b913	0.00023529334
102	0x390300ad	0.00012493385
103	0x391d0521	0.00014974597
104	0x390df2a6	0.00013537201
105	0x388a6726	6.599566e-05
106	0x36d7c721	6.430681e-06
107	0x360aa557	2.0659843e-06
108	0x34b8d3f6	3.4426893e-07
109	0x363b4bf9	2.7909393e-06
110	0x3435fe35	1.6949419e-07
111	0x00000000	0.0
112	0x00000000	0.0
113	0x1c4e3281	6.8224957e-22
114	0x32960279	1.7463423e-08
115	0x30fb1b29	1.8270373e-09
116	0x3480f454	2.401963e-07
117	0x36c79f26	5.9491895e-06
118	0x382be7d5	4.0985487e-05
119	0x394b7f02	0.00019406903
120	0x398bb1a8	0.0002664451
121	0x39aa5e3c	0.00032495137
122	0x3a5ea133	0.00084926485
123	0x3a9d7944	0.0012014289
124	0x3ab91f2f	0.0014123673
125	0x3acedcd7	0.0015782368
126	0x3b0fe376	0.0021955646
127	0x3b186521	0.0023253637
128	0x3b160271	0.0022889639
129	0x3b0294aa	0.0019925036
130	0x3aa8e638	0.0012885993
131	0x3a611f89	0.0008587768
132	0x3a2e6aba	0.0006653477
133	0x39aed17c	0.00033343944
134	0x384022da	4.5808825e-05
135	0x37602efa	1.3362378e-05
136	0x37348590	1.07599335e-05
137	0x36b62769	5.4286106e-06
138	0x36099850	2.0503248e-06
139	0x36069b13	2.005782e-06
140	0x00000000	0.0
141	0x00000000	0.0
142	0x31294444	2.4631541e-09
143	0x33a8c51f	7.858966e-08
144	0x381f92a9	3.8045142e-05
145	0x391b4275	0.00014806709
146	0x39bbaf16	0.0003579787
147	0x3a0e6806	0.0005432371
148	0x3a592f3b	0.0008284931
149	0x3aa91040	0.001289852
150	0x3afec22e	0.0019436532
151	0x3b195024	0.0023393715
152	0x3b402dee	0.0029324251
153	0x3b7782ea	0.003776724
154	0x3b9493a4	0.0045342017
155	0x3b9d26b3	0.004795873
156	0x3b91919c	0.004442407
157	0x3b8e6c5b	0.004346413
158	0x3b5f874e	0.0034107747
159	0x3b11ac98	0.0022228118
160	0x3ab0ce59	0.0013489231
161	0x3a4d8d68	0.00078412006
162	0x39cf1545	0.00039497964
163	0x392f6018	0.00016725098
164	0x38987bf8	7.271016e-05
165	0x383bb89b	4.47562e-05
166	0x37bf0c68	2.2774751e-05
167	0x3692b0d0	4.3717228e-06
168	0x00000000	0.0
169	0x2ca5ac1f	4.7086913e-12
170	0x33a3e81b	7.632499e-08
171	0x34407c4e	1.7926615e-07
172	0x3824c572	3.9284532e-05
173	0x39ad7dcf	0.00033090866
174	0x3a42dd97	0.0007433532
175	0x3a87beeb	0.0010356581
176	0x3ac88833	0.001529938
177	0x3b07cc05	0.002072097
178	0x3b3142c2	0.0027047847
179	0x3b7a2ddd	0.003817431
180	0x3b9555db	0.004557354
181	0x3bac754b	0.005263006
182	0x3bb2d618	0.005457651
183	0x3bb1a1e2	0.0054209093
184	0x3ba4d409	0.0050301594
185	0x3b9bb64b	0.0047519556
186	0x3b87d8cf	0.0041457186
187	0x3b51bca6	0.0032003312
188	0x3b0c3972	0.0021396545
189	0x3a9efba5	0.0012129439
190	0x3a15ea32	0.0005718797
191	0x39852bac	0.00025400275
192	0x392a2a7b	0.00016228289
193	0x37b5d0cd	2.1674112e-05
194	0x34aa637d	3.1737355e-07
195	0x32e3cc40	2.651916e-08
196	0x072db793	1.3069021e-34
197	0x31212126	2.3447426e-09
198	0x350e6922	5.305211e-07
199	0x3636dd37	2.7248877e-06
200	0x387132aa	5.7506062e-05
201	0x39b7a8e6	0.0003503032
202	0x3a81c582	0.0009900781
203	0x3aae7481	0.0013309867
204	0x3af23c33	0.0018481076
205	0x3b18cb52	0.0023314548
206	0x3b523126	0.0032072752
207	0x3b884eaf	0.0041597704
208	0x3b95883b	0.004563359
209	0x3b9eae7d	0.004842578
210	0x3b9c8f3b	0.0047778166
211	0x3b9601a3	0.004577832
212	0x3b98480c	0.0046472605
213	0x3b94cd71	0.004541092
214	0x3b8554a6	0.004068929
215	0x3b61b886	0.003444226
216	0x3b214375	0.0024606858
217	0x3acc8c96	0.0015605863
218	0x3a48c050	0.00076580513
219	0x399fd0fd	0.00030482552
220	0x392352bd	0.00015575714
221	0x382c3b55	4.1063253e-05
222	0x355ac458	8.1497046e-07
223	0x31e5727a	6.6777917e-09
224	0x09334e3e	2.158313e-33
225	0x2f88a1b7	2.485316e-10
226	0x35d3cdf1	1.5780662e-06
227	0x370dd4c3	8.453792e-06
228	0x391a14ac	0.00014694285
229	0x39d81812	0.00041216664
230	0x3a48f9ed	0.00076666364
231	0x3a935442	0.0011240321
232	0x3ac5b75a	0.001508455
233	0x3b00b0bd	0.0019636594
234	0x3b4531f9	0.00300896
235	0x3b58b084	0.0033064196
236	0x3b4fcfed	0.0031709627
237	0x3b523357	0.0032074058
238	0x3b5b494a	0.0033460432
239	0x3b5734b2	0.0032837805
240	0x3b749b11	0.0037323872
241	0x3b83fa8f	0.0040276716
242	0x3b857406	0.004072669
243	0x3b48e47b	0.0030653763
244	0x3b2cbf1f	0.0026359034
245	0x3adadb0a	0.0016697359
246	0x3a82896b	0.0009959167
247	0x39d04815	0.00039726557
248	0x38869fd8	6.419391e-05
249	0x372940f9	1.0088313e-05
250	0x35af4297	1.3057896e-06
251	0x33e4b706	1.0650369e-07
252	0x069725b2	5.6855275e-35
253	0x316e62f6	3.468981e-09
254	0x34872b17	2.5177062e-07
255	0x36aef375	5.213946e-06

exp_avg f4 [100]
0	0xb91edc6e	-0.0001515017
1	0x38f5da80	0.00011723209
2	0x375350a1	1.2595353e-05
3	0x390060c1	0.00012243075
4	0xb8a9eed6	-8.1030346e-05
5	0xb886f5bf	-6.435392e-05
6	0xb84a0750	-4.8167363e-05
7	0x371cd543	9.347978e-06
8	0x3923bc27	0.00015614984
9	0xb7a8ac8d	-2.010751e-05
10	0x37cc7578	2.4373396e-05
11	0xb7f2c4f2	-2.8940358e-05
12	0x3778d9ec	1.4832691e-05
13	0xb780fc5f	-1.5376309e-05
14	0xb8364644	-4.345762e-05
15	0x390c5c74	0.00013385882
16	0xb6ac3267	-5.131867e-06
17	0xb88cb4c2	-6.709389e-05
18	0x3950ecda	0.0001992466
19	0xb905f9be	-0.00012776905
20	0xb6e882bc	-6.9293583e-06
21	0x369e4a74	4.7174344e-06
22	0xb8ea9e86	-0.00011187517
23	0x38ebcc28	0.000112437
24	0x37baa14a	2.2248034e-05
25	0xb8beeb36	-9.1037175e-05
26	0x3895ea56	7.148522e-05
27	0x38eadaa2	0.00011198713
28	0xb86519b2	-5.4621785e-05
29	0xb7fef312	-3.0392348e-05
30	0xb719dd3c	-9.171021e-06
31	0x38009529	3.0656494e-05
32	0x37979f93	1.807491e-05
33	0xb70d4871	-8.4211215e-06
34	0xb86bfa24	-5.6261328e-05
35	0xb9c0cb8d	-0.0003677275
36	0x37b74119	2.1845613e-05
37	0xb910ecbf	-0.00013821105
38	0xb7a8e6c0	-2.0134612e-05
39	0x38f89b0a	0.0001185444
40	0xb77542f4	-1.4618727e-05
41	0xb8bac836	-8.906463e-05
42	0xb8f55394	-0.00011698078
43	0xb8ca2ef0	-9.6408534e-05
44	0x39ab9d61	0.00032732918
45	0xb76493e0	-1.3624289e-05
46	0x36643420	3.4004988e-06
47	0x37c142b2	2.303845e-05
48	0xb64baef5	-3.0351196e-06
49	0x393bca2f	0.00017909029
50	0x36d5e898	6.374972e-06
51	0x385b119c	5.223007e-05
52	0x38144932	3.5354118e-05
53	0x3898b432	7.281489e-05
54	0xb6ea399c	-6.98045e-06
55	0xb9175ac4	-0.00014434295
56	0x37e4d321	2.7278033e-05
57	0x36345fc4	2.6877833e-06
58	0x3885bf04	6.377514e-05
59	0xb824bc3b	-3.927595e-05
60	0xb833cd11	-4.286791e-05
61	0x38a1b0fa	7.710043e-05
62	0x37be6ee3	2.27014e-05
63	0xb8834cce	-6.260873e-05
64	0xb9803d84	-0.00024459895
65	0x3939b6ba	0.00017711046
66	0x386c8a28	5.6395453e-05
67	0x3764ccba	1.3637526e-05
68	0xb8547521	-5.0653824e-05
69	0xb903c08c	-0.00012564863
70	0xb9a5a0cd	-0.00031591058
71	0xb65c1751	-3.2796127e-06
72	0x391ce3b5	0.00014962147
73	0xb818caf4	-3.642864e-05
74	0x378efb80	1.7044833e-05
75	0x38613169	5.3690197e-05
76	0xb8262027	-3.960743e-05
77	0xb87c24f8	-6.011591e-05
78	0x38d30098	0.000100613746
79	0xb8915d0e	-6.9314716e-05
80	0x3880c515	6.140225e-05
81	0xb828405d	-4.0114264e-05
82	0xb8324abd	-4.2508113e-05
83	0xb7a3f468	-1.9544925e-05
84	0x386dac8d	5.6665904e-05
85	0x37622670	1.3479599e-05
86	0xb83a0541	-4.435075e-05
87	0xb81da05c	-3.7581063e-05
88	0xb911a353	-0.0001388912
89	0xb92e3f78	-0.00016617577
90	0x37ea5763	2.7935666e-05
91	0xb8516a6d	-4.99286e-05
92	0x3873da82	5.8139216e-05
93	0x3884ff65	6.3418214e-05
94	0xb772c706	-1.4470663e-05
95	0xb80852c2	-3.2502e-05
96	0xb6986aac	-4.5423712e-06
97	0x3824b8f4	3.9272898e-05
98	0x38f59a6d	0.000117112744
99	0xb7a8342c	-2.0051455e-05

exp_avg_sq f4 [100]
0	0x34238ee6	1.5232544e-07
1	0x342364fc	1.5217296e-07
2	0x33aa8262	7.9399584e-08
3	0x33b019b9	8.2003176e-08
4	0x348e4a0c	2.6503437e-07
5	0x344204b3	1.8069368e-07
6	0x343fa861	1.7849517e-07
7	0x345f26ef	2.0782657e-07
8	0x343bd989	1.7494871e-07
9	0x341c4c75	1.4556447e-07
10	0x340396c2	1.2255171e-07
11	0x34ac98ba	3.214862e-07
12	0x33d1188f	9.736788e-08
13	0x34592438	2.0222876e-07
14	0x34258949	1.5416767e-07
15	0x34c09106	3.5868305e-07
16	0x3435b243	1.692179e-07
17	0x34872db7	2.5178971e-07
18	0x346f7279	2.2300254e-07
19	0x34323e00	1.6600097e-07
20	0x33ed4759	1.10491506e-07
21	0x33ec426b	1.1001688e-07
22	0x346487f8	2.128362e-07
23	0x34b0eadc	3.2953437e-07
24	0x3489a030	2.563479e-07
25	0x34717004	2.2485625e-07
26	0x344b68e1	1.8944003e-07
27	0x3457c30b	2.0094392e-07
28	0x3491c105	2.7148795e-07
29	0x34b699a1	3.4011921e-07
30	0x34023d54	1.2129505e-07
31	0x340c7ba2	1.3083493e-07
32	0x33eacd8a	1.09338615e-07
33	0x34807627	2.3927825e-07
34	0x34605634	2.0892986e-07
35	0x34816e9e	2.4108607e-07
36	0x34a8c8e6	3.143861e-07
37	0x34c60d6f	3.6890148e-07
38	0x34940502	2.7570792e-07
39	0x3432b1e3	1.6642257e-07
40	0x344b6298	1.8941716e-07
41	0x347ebeb4	2.3724971e-07
42	0x34834c01	2.4455952e-07
43	0x3479d7c4	2.3268427e-07
44	0x344f0729	1.9280982e-07
45	0x34a37a90	3.0450292e-07
46	0x3398f759	7.123044e-08
47	0x3439a40c	1.7289148e-07
48	0x34d535c9	3.9713476e-07
49	0x341974e2	1.4291757e-07
50	0x33965e3e	7.002062e-08
51	0x34897849	2.5605758e-07
52	0x33d2d3ee	9.817437e-08
53	0x34b2cfcc	3.3306276e-07
54	0x34190f8e	1.4254894e-07
55	0x34b95a4e	3.452464e-07
56	0x3402d621	1.2185093e-07
57	0x34299a33	1.5795449e-07
58	0x34540e0f	1.9749153e-07
59	0x3413fce3	1.3782441e-07
60	0x346124d0	2.096815e-07
61	0x33789f0d	5.7886655e-08
62	0x3432d014	1.665324e-07
63	0x33fd4ed3	1.17955686e-07
64	0x34cb83bd	3.790755e-07
65	0x34ad1462	3.2238592e-07
66	0x348ed795	2.6606418e-07
67	0x344b7cf2	1.8951303e-07
68	0x349b503f	2.8929387e-07
69	0x34608812	2.0911128e-07
70	0x35159b4b	5.5732806e-07
71	0x343270c2	1.6618563e-07
72	0x346a1cc2	2.180341e-07
73	0x347192e4	2.2498313e-07
74	0x3449929a	1.8772917e-07
75	0x35008a9b	4.7885413e-07
76	0x3448966b	1.8681173e-07
77	0x348d218c	2.6287705e-07
78	0x3395dc54	6.9784306e-08
79	0x344c30b6	1.9016701e-07
80	0x34744b59	2.2751682e-07
81	0x3487b867	2.527988e-07
82	0x34875e51	2.5214334e-07
83	0x34e72a85	4.305804e-07
84	0x34a4eaa5	3.0718107e-07
85	0x34264eb7	1.5488591e-07
86	0x349a341e	2.8722656e-07
87	0x34fd951e	4.723342e-07
88	0x3423cbbe	1.5254679e-07
89	0x345153bc	1.9495104e-07
90	0x34126e39	1.3637408e-07
91	0x348dcdfa	2.6413164e-07
92	0x34b39d96	3.3456007e-07
93	0x34943656	2.7606683e-07
94	0x345c0152	2.0489577e-07
95	0x34c3868a	3.641947e-07
96	0x348b02a3	2.5892686e-07
97	0x3438c3da	1.7207586e-07
98	0x3437847f	1.7091405e-07
99	0x33f0ddbf	1.1216206e-07

exp_avg f4 [10, 100]
0	0xbe1e86e5	-0.15481146
1	0xbcfd54d0	-0.03092423
2	0xbc18a2ba	-0.009316141
3	0x3d66ded0	0.056364834
4	0xbc34babe	-0.011030851
5	0xbd893077	-0.06698697
6	0x3e27b8a6	0.16379032
7	0xbe487fac	-0.19579953
8	0xbdae0436	-0.08496897
9	0xbb060005	-0.002044679
10	0x3dfc6030	0.12323034
11	0xbdee51b3	-0.11636677
12	0x3d9d48ce	0.07679902
13	0x3e0d2c1c	0.13786358
14	0xbe89cf57	-0.26916
15	0xbdeac6ea	-0.11463721
16	0x3de93d0b	0.11388596
17	0xbc310948	-0.0108054355
18	0x3dda33c8	0.10654408
19	0x3caffd48	0.021483079
20	0xbe117146	-0.14203367
21	0x3d186a72	0.03721089
22	0x3e11be10	0.1423266
23	0xbe871a39	-0.26387194
24	0x3ef13211	0.4710851
25	0x3b77ee5e	0.0037831287
26	0xbd4ec5e2	-0.050481685
27	0xbed022f6	-0.40651673
28	0x3e72bb77	0.23704325
29	0x3c8a8f48	0.016914025
30	0x3d551cbd	0.05202936
31	0x3e12e0c9	0.14343561
32	0x3c9421f8	0.018082604
33	0x3e46709c	0.19378895
34	0x3d8df0e9	0.069307156
35	0x3a5bd443	0.00083858165
36	0xbd27ddd2	-0.04098303
37	0x3c769b5e	0.015051691
38	0x3d802313	0.0625669
39	0xbcd17e5c	-0.025572948
40	0x3d52746d	0.051380564
41	0xbe8c6795	-0.27422777
42	0x3bd85b20	0.00660266
43	0xbbc9748d	-0.006147927
44	0x3c1c9205	0.009556298
45	0xbd541063	-0.05177344
46	0xbca43df6	-0.020049077
47	0x3d27d60a	0.040975608
48	0xbd8b2e75	-0.0679597
49	0xbd17b5ed	-0.037038732
50	0x3e0ac49b	0.13551562
51	0x3e0f1839	0.13974084
52	0x3c13b884	0.00901616
53	0xbe00b840	-0.12570286
54	0x3d18dd03	0.03732015
55	0x3ddfd356	0.10928981
56	0x3deb3eaf	0.11486565
57	0xbcb5c203	-0.022187239
58	0xbb8e57a9	-0.004343946
59	0x3e2182f0	0.15772605
60	0x3e1b2088	0.15149128
61	0x3de2906b	0.11062702
62	0xbb78df36	-0.003797484
63	0x3dd66312	0.10468115
64	0x3ea28e9c	0.31749427
65	0xbdf9c73e	-0.121962056
66	0xbe22fce1	-0.15916778
67	0x3e159438	0.14607322
68	0x3d0122f2	0.031527467
69	0x3b871fdf	0.0041236724
70	0x3db66841	0.089066036
71	0x3d9909cb	0.07472571
72	0xbed73745	-0.42034355
73	0x3de06f38	0.10958713
74	0x3e468bae	0.19389221
75	0xbe8adfe1	-0.2712393
76	0xbd900113	-0.07031455
77	0x3d382204	0.044954315
78	0x3e195029	0.14971985
79	0xbd7dbe38	-0.061948985
80	0x3d38670a	0.04502014
81	0xbd9cc9ce	-0.07655679
82	0x3e0d21c6	0.13782415
83	0x3e09a1e8	0.13440669
84	0xbc87d6c8	-0.016581908
85	0x3df112b3	0.11771145
86	0x3e0e39ef	0.13889287
87	0xbd762005	-0.06008913
88	0x3e8182f4	0.25295222
89	0xbe0a6386	-0.13514528
90	0x3dedd3ca	0.11612661
91	0xbdd47902	-0.10374643
92	0xbea9f484	-0.33194363
93	0x3dc24cd2	0.094873086
94	0xbd686355	-0.056735355
95	0x3d201009	0.039077792
96	0xbc94d88a	-0.01816966
97	0x3b0f0976	0.0021825708
98	0x3e537122	0.20648625
99	0x3e109d55	0.14122517
100	0x3f09aa6e	0.5377568
101	0x3ce4c150	0.02792421
102	0x3e01b603	0.12667088
103	0xbe4708f8	-0.19437015
104	0x3d8537cc	0.06504783
105	0xbdc80ded	-0.09768281
106	0x3eaeda6c	0.34151018
107	0xbcbfe92c	-0.023426615
108	0x3e398ff2	0.18121317
109	0x3e0a2af9	0.13492955
110	0xbdc7b816	-0.097519085
111	0x3d35c03b	0.04437278
112	0x3ea7bbc8	0.32760453
113	0xbc4224b1	-0.011849568
114	0xbdbdde72	-0.09270944
115	0xbe93cc4c	-0.28866804
116	0xbde07630	-0.109600425
117	0xbe315829	-0.17318787
118	0xbd225904	-0.039635673
119	0x3f3510e7	0.70728916
120	0xbd43661d	-0.047704805
121	0xbc9d0068	-0.019165233
122	0xbe53d4c2	-0.2068663
123	0x3eff8a7c	0.49910343
124	0x3cd3d384	0.025857694
125	0x3d8c39c0	0.068469524
126	0xbdc1d58a	-0.094645575
127	0xbd8a82b6	-0.067632124
128	0x3ba86080	0.005138457
129	0xbe61f1cb	-0.22064893
130	0x3c9ded09	0.019278066
131	0xbe351505	-0.176838
132	0xbdae73f4	-0.0851821
133	0xbed85468	-0.42251897
134	0x3d597055	0.053085644
135	0xbc22d090	-0.0099374205
136	0x3d0ec1f7	0.034852948
137	0xbe97f1bc	-0.29676616
138	0x3d9f7207	0.07785421
139	0xbd3f77fd	-0.04674529
140	0xbe96c3a3	-0.29446134
141	0x3c7c2c60	0.015391439
142	0xbdb26de2	-0.08712365
143	0xbc64ce18	-0.013965152
144	0x3d8f49ff	0.069965355
145	0x3d5e8fd7	0.054336395
146	0xbe118ed7	-0.14214645
147	0xbdb1b157	-0.08676403
148	0xbd3a90da	-0.045548297
149	0x3f4b94a0	0.7952366
150	0xbd3bd498	-0.045857042
151	0xbe252bcc	-0.16129988
152	0xbd108510	-0.03528315
153	0xbe66c27e	-0.2253513
154	0xbdb08c41	-0.08620501
155	0x3dae7180	0.08517742
156	0x3d4c3d54	0.049863175
157	0x3d0cd87f	0.034386154
158	0x3e622f11	0.22088267
159	0x3cc2018f	0.023682384
160	0xbbfa2a2d	-0.0076344223
161	0x3dedde61	0.11614681
162	0xbc082250	-0.008308962
163	0xbe0173a3	-0.12641768
164	0x3d8244cd	0.06360779
165	0xbe644743	-0.22292809
166	0x3f436548	0.7632642
167	0xbc21a51e	-0.009866027
168	0xbda3df99	-0.08001632
169	0xbea5c62e	-0.32377762
170	0x3cd8d40a	0.026468296
171	0x3d3155f4	0.043294862
172	0x3e05a46b	0.13051002
173	0xbf50ccc6	-0.8156246
174	0x3d43c90b	0.04779915
175	0x3f8c36ad	1.0954186
176	0xbd768eaa	-0.06019465
177	0xbe46965d	-0.19393297
178	0xbe0cc374	-0.13746434
179	0x3dc99330	0.09842527
180	0xbe587bac	-0.21140927
181	0x3d794683	0.06085826
182	0x3e896e3e	0.2684192
183	0xbd1cc99b	-0.038278203
184	0x3e17c7d7	0.14822327
185	0x3eeac84c	0.4585594
186	0x3e11e2fc	0.14246744
187	0x3eff24bb	0.4983271
188	0xbe39590c	-0.18100375
189	0x3edb3be8	0.42819142
190	0x3ba9c3ed	0.005180827
191	0xbd91495e	-0.07094072
192	0x3fb55064	1.4165158
193	0xbda88441	-0.082283504
194	0xbba7632d	-0.005108258
195	0xbdb66994	-0.08906856
196	0xbe9aec33	-0.3025833
197	0xbe145e96	-0.14489207
198	0x3df3d70b	0.119062506
199	0x3e065ec9	0.13122095
200	0xbeaedc7d	-0.34152594
201	0xbefa9a00	-0.48945618
202	0xbdbc09af	-0.091815345
203	0xbe208e18	-0.15679204
204	0xbe85ee37	-0.26158306
205	0x3e938648	0.28813386
206	0xbc6d74a0	-0.014493138
207	0x3d91ae8b	0.071133696
208	0xbca5edd4	-0.020255007
209	0xbe87304d	-0.26404038
210	0xbed66e25	-0.4188091
211	0xbcc42dca	-0.023947615
212	0xbd966e11	-0.07345212
213	0xbdf122eb	-0.11774238
214	0x3f415c17	0.7553114
215	0x3e4ca26e	0.19983837
216	0xbe582974	-0.21109563
217	0xbe077e2f	-0.13231729
218	0xbe9ea55e	-0.3098554
219	0xbf8bc655	-1.0919901
220	0x3ca838c0	0.020534873
221	0xbe9f4afa	-0.3111189
222	0xbeb9b3d8	-0.36270022
223	0x3e516603	0.2044907
224	0xbedfa3cf	-0.43679664
225	0xbaa9e500	-0.0012961924
226	0x3e1647c4	0.14675814
227	0x3f624664	0.8838866
228	0xbecc21cd	-0.39869538
229	0xbd93798e	-0.07200919
230	0xbe7805b8	-0.24220932
231	0xbee00846	-0.43756312
232	0xbd7d4c77	-0.0618405
233	0xbe3d7c2e	-0.18504402
234	0xbe30585e	-0.1722121
235	0xbf2680ee	-0.6504048
236	0xbe24e3fc	-0.16102594
237	0xbd49083b	-0.049080115
238	0xbddc3f43	-0.10754254
239	0xbd53ce0e	-0.05171018
240	0xbd0c4e88	-0.03425458
241	0x3ea10c0a	0.31454498
242	0x3da0908a	0.07840069
243	0xbe420bdd	-0.18949838
244	0x3e8412a5	0.25795475
245	0xbd0b2c48	-0.033977777
246	0xbd542d52	-0.051801033
247	0xbec41f24	-0.38305008
248	0xbe7ea110	-0.24866128
249	0xbcaac3dc	-0.020845346
250	0xbe81089e	-0.25201887
251	0xbf7bce3e	-0.98361576
252	0xbef04490	-0.4692731
253	0xbf078966	-0.5294403
254	0xbe05e355	-0.13075002
255	0x3d831f41	0.064024456

exp_avg_sq f4 [10, 100]
0	0x3f5196ac	0.8187053
1	0x3f234133	0.6377136
2	0x3f8124c3	1.0089344
3	0x3f25ea92	0.6481105
4	0x3f413908	0.7547765
5	0x3f019373	0.50615615
6	0x3f4ff335	0.8123048
7	0x3f5ac115	0.8545087
8	0x3f6147f5	0.8800042
9	0x3ebf75e9	0.37394646
10	0x3f145b2f	0.57951635
11	0x3f60b883	0.8778154
12	0x3ef1b5ce	0.47209018
13	0x3f804347	1.0020531
14	0x3ff9998b	1.9499983
15	0x3f93ba8b	1.1541303
16	0x3f28547a	0.657539
17	0x3f3bf694	0.73423123
18	0x3f4715c2	0.77767575
19	0x3f3aca55	0.72964984
20	0x3f035716	0.5130476
21	0x3ff87c83	1.9412998
22	0x3f05cf4a	0.52269423
23	0x3fa55c10	1.291872
24	0x3fb55a5d	1.4168202
25	0x3f328a44	0.69742227
26	0x3f7faca3	0.998728
27	0x3fd99560	1.6998711
28	0x3f849826	1.0358932
29	0x3f5b743d	0.8572424
30	0x3f0062f6	0.50151
31	0x3f23c678	0.63974714
32	0x3f30a81f	0.6900653
33	0x401c25d6	2.4398093
34	0x3f2c01a5	0.6719001
35	0x3f388229	0.7207361
36	0x3f8e4176	1.1113727
37	0x3f3a90fe	0.7287749
38	0x3f6508e1	0.89466673
39	0x3fa98359	1.3243209
40	0x3fe880c6	1.8164299
41	0x3f3bf726	0.73423994
42	0x3f2b522a	0.6692225
43	0x3f3f4411	0.74713236
44	0x40164234	2.3477907
45	0x3fa20c6f	1.2660044
46	0x3f00b2a1	0.50272566
47	0x3f93ec74	1.1556535
48	0x3f7ebdf2	0.99508584
49	0x3eca7db9	0.39549044
50	0x3f7da25f	0.99075884
51	0x3ede8606	0.43461627
52	0x3f0cf15b	0.5505578
53	0x40024cf5	2.035947
54	0x3f2a817e	0.6660384
55	0x3f9f2dc6	1.2435844
56	0x3f09897f	0.5372543
57	0x3f6050eb	0.8762347
58	0x3f88e86f	1.0695933
59	0x3ef78cca	0.483496
60	0x3f824898	1.0178404
61	0x3ebe207b	0.37134156
62	0x40534ffa	3.3017564
63	0x3f283dd6	0.65719354
64	0x3fd37e32	1.6522887
65	0x3f2f542e	0.68487823
66	0x3f1abdcd	0.60445863
67	0x3f639f19	0.8891464
68	0x3f26ee66	0.6520752
69	0x3f1b1c65	0.605902
70	0x3f220de7	0.63302463
71	0x3f9009a9	1.1252948
72	0x3f696807	0.9117436
73	0x3f3fbafd	0.74894696
74	0x3f0fcf38	0.56175566
75	0x3f6faf1d	0.93626577
76	0x406fdbbc	3.7477865
77	0x3fb2ced5	1.396937
78	0x3ee3bbef	0.4447932
79	0x40104c4e	2.2546573
80	0x3f902f9a	1.1264527
81	0x3f43c334	0.7646973
82	0x3f4a4ed8	0.79026556
83	0x3f957324	1.1675763
84	0x3f8bf5d5	1.0934397
85	0x3f4fc8af	0.81165594
86	0x3f752052	0.9575244
87	0x3f3c1f64	0.734854
88	0x3f378e87	0.71701854
89	0x3f8715e4	1.0553555
90	0x3f37c060	0.71777916
91	0x3f167e05	0.5878604
92	0x3f33e950	0.7027788
93	0x3f2696ab	0.6507365
94	0x3f2dc84b	0.6788375
95	0x3f726d33	0.94697875
96	0x3f7c5ade	0.9857615
97	0x3f5beaaa	0.85904944
98	0x3efeae06	0.49742144
99	0x3f0f97fd	0.5609129
100	0x3f305d92	0.68892777
101	0x3f874731	1.0568601
102	0x3ec0ec1c	0.37680137
103	0x3e86475d	0.2622632
104	0x3f747617	0.9549269
105	0x3f6d82d6	0.92777765
106	0x3e9383f1	0.288116
107	0x3f3e6e88	0.7438741
108	0x3f72a9a7	0.9479012
109	0x3fa02332	1.2510741
110	0x3f274229	0.6533533
111	0x3f26ff53	0.65233344
112	0x3ea36364	0.31911767
113	0x3f308167	0.6894745
114	0x3f361591	0.7112666
115	0x3f91e07b	1.1396631
116	0x3e9ad614	0.30241454
117	0x3f183d9f	0.59469026
118	0x3ea0cfdb	0.3140858
119	0x3f877b66	1.0584533
120	0x3e287b07	0.16453181
121	0x3f1178bd	0.56824857
122	0x3ec301a0	0.38087177
123	0x3e96fcc7	0.2948973
124	0x3eb1fcca	0.34763175
125	0x3e87bc49	0.26510838
126	0x3ef7d907	0.48407766
127	0x3f0cf0be	0.55054843
128	0x3ef45c3d	0.47726622
129	0x3ef08bd7	0.4698169
130	0x3f3dffe4	0.74218583
131	0x3ef04042	0.46924025
132	0x3fc306ef	1.5236491
133	0x3f59a9c0	0.8502464
134	0x3ea7a876	0.32745713
135	0x3f0764cf	0.52888197
136	0x3f13bbc2	0.5770837
137	0x3f132fff	0.5749511
138	0x3fa30612	1.2736228
139	0x3ebe4b7e	0.3716697
140	0x3f6144b4	0.8799546
141	0x3f02e273	0.51126784
142	0x3f0a5c6b	0.5404727
143	0x3f2619fd	0.64883405
144	0x3f1d8322	0.6152822
145	0x3ea3969e	0.3195085
146	0x3f11e453	0.5698902
147	0x3ef5ead0	0.4803071
148	0x3ea4d1f6	0.32191437
149	0x3f65ddee	0.8979176
150	0x3e9d586f	0.30731532
151	0x3eb24d25	0.34824482
152	0x3f791081	0.9729081
153	0x3f023f13	0.50877494
154	0x3ec92955	0.39289346
155	0x3e9a409c	0.30127418
156	0x3f4f02d3	0.80863684
157	0x3e85b50c	0.2611469
158	0x3e99dca5	0.3005115
159	0x3f193bc9	0.5985685
160	0x3f1fa88b	0.6236655
161	0x3e4164e2	0.1888614
162	0x3f04d513	0.51887625
163	0x3eddd590	0.43326998
164	0x3f0a9735	0.54136974
165	0x3ef464a4	0.47733033
166	0x400354d9	2.0520537
167	0x3f2a26a2	0.664652
168	0x3ec48003	0.38378915
169	0x3effce4d	0.49962083
170	0x3ea72ae9	0.32649925
171	0x3eca682f	0.3953261
172	0x3f50a732	0.8150512
173	0x3f9d7ec3	1.230431
174	0x3f22a152	0.63527405
175	0x3fd5df32	1.6708739
176	0x3f442e30	0.76632977
177	0x3f7565b9	0.9585834
178	0x3e3e8d53	0.18608598
179	0x3f265193	0.6496822
180	0x3ef7fbf1	0.48434404
181	0x4011512b	2.270579
182	0x3fbe47d5	1.4865671
183	0x3eb045cc	0.3442825
184	0x3f646330	0.8921385
185	0x3f98c424	1.1934857
186	0x3fd46218	1.6592436
187	0x4011a6cf	2.2758062
188	0x3ee441d1	0.44581464
189	0x3f7587fc	0.9591062
190	0x3e8bac17	0.27279732
191	0x3f1f91de	0.6233195
192	0x404546df	3.0824506
193	0x3f0bf89d	0.5467623
194	0x3f54bd28	0.8310113
195	0x3f8089c6	1.0042045
196	0x3eae325a	0.3402279
197	0x3e986a7e	0.29768747
198	0x3ea531b1	0.32264474
199	0x3f7ad9b2	0.97988427
200	0x4017a40d	2.3693879
201	0x3f43764a	0.7635237
202	0x3f82d095	1.0219904
203	0x3f831b2a	1.0242665
204	0x3f970a84	1.1800084
205	0x3f969c6d	1.1766487
206	0x3f9029cc	1.1262755
207	0x3f91e1eb	1.139707
208	0x3fa0e679	1.2570335
209	0x3f4b55d2	0.79427826
210	0x3f6926c4	0.91074777
211	0x3fab61a3	1.3389171
212	0x3f616695	0.8804715
213	0x3fd17dc6	1.6366508
214	0x400fa877	2.2446573
215	0x3fa64175	1.2988726
216	0x3f5ef75d	0.87096196
217	0x3fb1b1a4	1.3882337
218	0x3f4c1fc1	0.7973595
219	0x40112327	2.2677705
220	0x3f7f61dd	0.997587
221	0x3f844d5c	1.0336108
222	0x4086d4f5	4.2134957
223	0x3f4cb022	0.7995626
224	0x3f866a00	1.0501099
225	0x3f9d8b3f	1.230812
226	0x3f9519be	1.1648481
227	0x406dbc71	3.7146266
228	0x3f89d8bd	1.0769268
229	0x3fc3426d	1.5254647
230	0x3f261ff2	0.64892495
231	0x3f91c3ca	1.1387875
232	0x400a7805	2.1635754
233	0x3fc134a1	1.5094186
234	0x403023f7	2.7521951
235	0x40abf177	5.3732257
236	0x3ff782dc	1.933681
237	0x3fd671fb	1.6753534
238	0x40bc73fc	5.8891582
239	0x3f5b0813	0.85559195
240	0x3fe5b20d	1.7944962
241	0x3fa8d113	1.3188804
242	0x3f55e946	0.8355907
243	0x3faed51e	1.3658788
244	0x40696879	3.6470015
245	0x3f5aff45	0.8554576
246	0x3f3501ba	0.7070576
247	0x3fba7ee7	1.4569978
248	0x3f8beb16	1.0931118
249	0x3f52f50b	0.82405156
250	0x3f384b90	0.719903
251	0x3fd367f9	1.6516105
252	0x3f941eb4	1.157187
253	0x3f9e7365	1.2378966
254	0x3fba42ae	1.4551599
255	0x3fabc9e5	1.3420988

exp_avg f4 [10]
0	0xba803a8c	-0.0009783073
1	0x3b8a7bd2	0.0042261863
2	0x3b0a953a	0.0021146075
3	0xbab75135	-0.0013985994
4	0x37cae150	2.4185196e-05
5	0x3bbcc53f	0.0057608183
6	0x3ba09ba8	0.004901368
7	0xbbd2d761	-0.0064343666
8	0x3a90580b	0.0011012567
9	0xbc18a6f5	-0.009317149

exp_avg_sq f4 [10]
0	0x39ae981e	0.00033301202
1	0x39a93405	0.0003227295
2	0x3a2cc458	0.0006590537
3	0x3a4de6c9	0.0007854519
4	0x3a1ec4da	0.0006056555
5	0x3a3f1440	0.0007289089
6	0x39e5e62d	0.00043849778
7	0x3a0fe97a	0.0005489808
8	0x3a7f6560	0.0009742584
9	0x3a81e35b	0.0009909676
